LunarLander/checkpoint.pth (torch_old, 6988 bytes, 6 tensors)

fc1.weight f4 [32, 8]
-0.15262139 -0.52242184 -0.17203951 -0.9594637 0.2872169 0.31251246 0.06395217 0.5795646
0.15063655 0.004994279 0.17743813 -0.5698777 0.05571155 -1.4183528 -0.190372 0.07631647
0.20652519 0.02234232 -0.41809678 -0.020876916 0.2621907 0.89273036 0.5302021 0.6771501
0.71796805 -0.6543336 1.2128413 -0.5758767 -1.1680323 -0.39875823 0.0440557 0.12087893
-0.44849598 -0.830527 -0.7300921 -0.9383313 0.6400219 0.46209884 0.024948439 0.32391933
0.7245265 -0.418472 0.7683879 -0.41246033 -0.8625393 -0.16782546 0.10960595 0.3551245
-0.3492846 -0.015870057 -0.30331868 0.2277823 0.94028103 0.68897974 0.21124999 -0.91941905
0.30346033 -1.4675514 0.40705913 -1.2490224 0.44475576 0.07753804 -0.08047116 0.13511473
-0.1552253 -0.058248516 0.012145028 -0.3443777 0.80057645 1.2203506 -0.4728788 0.04748692
0.4580348 0.6180387 0.46233132 1.9498272 0.28643832 -0.7023914 -0.11692659 -0.42605093
-0.9498851 -0.106538475 -0.15746354 -0.84743905 -0.57648385 -0.051071186 -0.03787642 -0.6277853
0.14804871 -0.53746855 -0.16230445 -1.0411698 1.283646 0.6589501 -0.014283574 -0.3929281
0.26090175 0.22960947 0.33956042 0.773213 2.6194162 0.57540846 -0.08527184 -0.077825
-0.9292133 -1.1176479 -0.9057705 -0.40944177 0.37765422 0.27051723 0.0952566 0.28638595
0.15352164 -0.7244961 0.8155325 -0.5188588 -1.2819382 -0.33265135 0.12043408 0.21924119
0.14317195 0.07072848 0.009290807 0.23172826 0.93467754 -1.1067619 -0.69525087 0.2740631
0.24670036 -0.71522075 -0.14818828 -0.7692528 -1.0035017 -0.147388 0.35616776 -0.04199875
-0.02193148 -0.03272482 0.35453483 -0.65045303 0.732819 1.020189 0.5174987 -0.35557556
-0.012937687 -0.30942747 0.47681677 -0.23085015 -1.1046404 -0.88021535 -0.6539311 -0.15510677
0.026497323 -0.71155214 0.21018909 -1.0070556 -0.7107466 -0.06027566 0.13843584 0.18773697
-0.84922034 -0.8881585 -0.7318128 -0.5265694 0.17775813 0.24301997 0.06538489 0.13402447
-0.5413847 -0.82622373 -0.5935645 -0.8807737 1.3620265 0.34564233 0.079500616 0.29031417
0.17456618 -0.50761825 0.49084494 -1.096786 -0.40023386 -0.021306925 0.19586429 -0.10160254
0.95709294 -0.5028385 0.29330912 -1.0647624 0.12043319 0.27667457 0.1686172 0.40663052
0.121930316 0.33901566 -1.9717351 -1.7302842 -0.26617283 0.30711246 0.1256464 0.2422151
-0.089445 -0.6855483 -0.06452299 -0.84702194 0.06080509 0.24057162 -0.18309036 0.5927682
0.10475288 0.012986274 -0.023049539 -0.04630233 0.066456 -0.05733618 -0.026577072 0.04511094
0.21953653 -0.56007993 0.12440446 -1.7018547 0.4240296 0.44898295 0.22917914 -0.27897558
-0.9802498 0.13046047 -0.5239893 -0.13711548 -0.11935606 -0.38164744 0.027421767 -0.2461894
0.24994457 0.6290929 1.8017824 -2.258132 -1.0521976 0.4325239 0.2624325 0.25870383
-0.852601 -0.016444948 0.0059684184 -0.45030653 -0.22079533 -0.66835225 -0.15605024 -0.6449878
0.08811617 -0.009148789 0.33954698 0.044340566 2.8496459 -0.7160293 -0.20329052 -0.10024885
00000000: c848 1cbe 70bd 05bf 202b 30be 6a9f 75bf
00000010: 180e 933e a201 a03e 5bf9 823d 585e 143f
00000020: 7840 1a3e 0ca7 a33b 57b2 353e 81e3 11bf
00000030: cb31 643d 968c b5bf e1f0 42be cf4b 9c3d
00000040: 577b 533e 3e07 b73c c810 d6be 1106 abbc
00000050: dc3d 863e fa89 643f 53bb 073f b559 2d3f
00000060: c1cc 373f 6882 27bf 623e 9b3f a86c 13bf
00000070: 1582 95bf 0a2a ccbe c073 343d 5f8f f73d
00000080: 44a1 e5be 6b9d 54bf 51e7 3abf 7b36 70bf
00000090: 7ad8 233f 3898 ec3e ab60 cc3c c1d8 a53e
000000a0: 927a 393f f641 d6be 12b5 443f 002e d3be
000000b0: 60cf 5cbf 70da 2bbe 1679 e03d e1d2 b53e
000000c0: 6ed5 b2be ec01 82bc 964c 9bbe c33f 693e
000000d0: 42b6 703f fa60 303f eb51 583e 0c5f 6bbf
000000e0: 275f 9b3e b9d8 bbbf 0e6a d03e f7df 9fbf
000000f0: 07b7 e33e 44cc 9e3d 10ce a4bd 845b 0a3e
00000100: 62f3 1ebe ff95 6ebd f1fb 463c 4652 b0be
00000110: 94f2 4c3f 7334 9c3f 2c1d f2be a581 423d
00000120: 8a83 ea3e c937 1e3f b1b6 ec3e f093 f93f
00000130: 0ba8 923e eccf 33bf 3577 efbd 5923 dabe
00000140: ab2b 73bf d830 dabd 1f3e 21be c4f1 58bf
00000150: 7294 13bf 0530 51bd 4e24 1bbd 8ab6 20bf
00000160: 159a 173e 8a97 09bf 2333 26be 0d45 85bf
00000170: 834e a43f f4b0 283f a705 6abc df2d c9be
00000180: ea94 853e bf1e 6b3e ddda ad3e 4af1 453f
00000190: 84a4 2740 f84d 133f 01a3 aebd b762 9fbd
000001a0: ece0 6dbf 160f 8fbf 93e0 67bf 5aa2 d1be
000001b0: e55b c13e 3c81 8a3e e415 c33d 2ea1 923e
000001c0: c734 1d3e 9478 39bf bdc6 503f eed3 04bf
000001d0: 8d16 a4bf 4751 aabe 25a6 f63d c380 603e
000001e0: ab9b 123e 18da 903d 7838 183c 2c4a 6d3e
000001f0: 0747 6f3f 60aa 8dbf f6fb 31bf 0052 8c3e
00000200: 059f 7c3e b518 37bf abbe 17be c0ed 44bf
00000210: be72 80bf e1ec 16be 9f5b b63e e206 2cbd
00000220: a6a9 b3bc 760a 06bd 9785 b53e 1784 26bf
00000230: 079a 3b3f 8e95 823f cb7a 043f 000e b6be
00000240: 98f8 53bc 476d 9ebe 5421 f43e fb63 6cbe
00000250: db64 8dbf cb55 61bf 0768 27bf 4fd4 1ebe
00000260: ea10 d93c 4828 36bf cf3b 573e 33e7 80bf
00000270: 7df3 35bf 9ce3 76bd 20c2 0d3e 1f3e 403e
00000280: 8166 59bf 5b5e 63bf 1558 3bbf 41cd 06bf
00000290: 3a06 363e 3ada 783e 83e8 853d b63d 093e
000002a0: 3098 0abf 6683 53bf d8f3 17bf 637a 61bf
000002b0: e256 ae3f 08f8 b03e 38d1 a23d 0fa4 943e
000002c0: 7ac1 323e 45f3 01bf 0750 fb3e 7c63 8cbf
000002d0: 74eb ccbe dc8b aebc a690 483e fe14 d0bd
000002e0: 0b04 753f 06ba 00bf 9d2c 963e 224a 88bf
000002f0: ada5 f63d 4aa8 8d3e fda9 2c3e e031 d03e
00000300: 9ab6 f93d 7693 ad3e d161 fcbf f479 ddbf
00000310: ce47 88be d83d 9d3e 73a9 003e 3c07 783e
00000320: f12e b7bd 1880 2fbf a124 84bd 6ed6 58bf
00000330: c20e 793d 6858 763e 0a7c 3bbe a8bf 173f
00000340: ae88 d63d 62c4 543c 63d2 bcbc 83a7 3dbd
00000350: 151a 883d 58d9 6abd 29b8 d9bc 40c6 383d
00000360: 2fce 603e 6661 0fbf c4c7 fe3d 60d6 d9bf
00000370: 681a d93e 18e1 e53e f0ad 6a3e e3d5 8ebe
00000380: a7f1 7abf 6e97 053e 2a24 06bf 0068 0cbe
00000390: f370 f4bd 4b67 c3be 9da3 e03c 1319 7cbe
000003a0: 78f1 7f3e 3b0c 213f cea0 e63f 3c85 10c0
000003b0: 69ae 86bf c673 dd3e 8d5d 863e d474 843e
000003c0: 0f44 5abf 8eb7 86bc b992 c33b 948e e6be
000003d0: 2c18 62be 2219 2bbf a2cb 1fbe ec1d 25bf
000003e0: 4076 b43d cde4 15bc 1ad9 ad3e 749e 353d
000003f0: 9960 3640 b24d 37bf 642b 50be 454f cdbd

fc1.bias f4 [32]
-0.2520053 0.42121133 -0.5430436 -0.23796506 -0.32792944 -0.10882967 0.33613124 -0.30432197
0.21752912 0.57822293 -0.026711253 -0.5923902 -0.17805506 -0.33484358 -0.35423565 0.25435394
-0.1573097 0.2658732 -0.2170771 -0.33655825 -0.23203835 -0.42306906 -0.10664524 -0.39275625
0.3611664 -0.22322993 -0.30987757 -0.13531575 -0.5828419 0.997996 -0.17379016 -0.027861087
00000000: d706 81be 03a9 d73e e804 0bbf 1dad 73be
00000010: 5ee6 a7be 17e2 debd 6519 ac3e 17d0 9bbe
00000020: f4bf 5e3e 6b06 143f 8fd1 dabc e2a6 17bf
00000030: 1154 36be 9e70 abbe 605e b5be ae3a 823e
00000040: cb15 21be 8820 883e 7649 5ebe 5d51 acbe
00000050: 769b 6dbe 829c d8be d268 dabd 5917 c9be
00000060: cdea b83e 6396 64be 46a8 9ebe 3690 0abe
00000070: 2035 15bf aa7c 7f3f 0cf6 31be ef3c e4bc

fc2.weight f4 [32, 32]
0.1724775 0.6079949 0.20578189 0.9023465 0.5338133 0.24078585 0.78931385 0.60471827
0.6970988 0.11722228 0.65897745 1.3726742 -0.56352305 0.8202163 0.8156041 0.7957771
0.36959368 0.75335574 0.6741742 0.86370325 0.66410714 1.0201416 0.33937055 0.54488856
0.15950526 0.11091243 0.06544436 0.876355 0.61718875 -0.16167432 0.556569 -0.6765094
0.38010013 0.5043925 0.2772611 0.9067977 0.67040145 0.3890743 0.9055979 0.64215404
0.57981247 0.32410958 0.3019421 1.2422205 -0.004633917 0.92914593 0.8573627 0.65913665
0.50718176 0.8369009 1.0012019 0.8510348 0.45816007 1.0524923 0.43447027 0.56479156
0.076583505 0.39865646 0.102198556 0.5450213 0.49842703 -0.21813376 0.18694937 -0.48368317
-0.78454155 -0.34265426 -0.20268743 -1.2447422 -1.0833778 -0.93354183 -1.866464 -0.32383373
-0.5420088 -2.2161968 0.01958575 -0.5612728 1.387932 -1.2074455 -1.4388013 -1.290541
-1.6879348 -0.276078 0.13251676 -1.5500339 -1.0702125 -0.98467296 -0.99442315 -0.70926416
0.9454385 -0.6313443 0.12654342 -0.16342086 -1.712681 1.7439762 -1.0152689 1.7585888
0.3677618 0.8107638 0.4989947 1.0303576 0.46710584 0.40011021 0.6971107 0.59696823
0.40886122 0.25325277 0.38517922 1.5461245 -0.22970228 0.801516 0.84740865 0.7609229
0.54045314 0.7973324 0.70005053 0.90856427 0.62936735 0.92962295 0.5431692 0.7047082
-0.015425016 0.28639442 -0.08217197 0.60146254 0.8147016 -0.29330137 0.28962618 -0.7154637
-0.7293461 0.07823715 -1.4602518 -0.5275455 -0.32058853 -0.40332526 -1.2411007 -0.34080473
-1.605994 -0.7973573 0.4140025 -1.0986018 1.4236037 0.058083955 -1.0515075 -0.21601543
-0.043916535 -1.19592 -1.3177313 -0.8333673 0.44946387 -1.103178 0.1435077 -1.1799631
0.26269513 -0.7762925 -0.035861507 0.2163575 -0.39511907 1.1741066 0.40768653 2.5017495
-0.16038711 0.14030628 0.23538882 0.44792375 0.40203375 -0.04495502 0.91062206 0.72936505
0.64525604 0.22097605 -0.010848519 1.0975049 -0.8502237 0.44205377 0.45599547 0.2294256
-0.066115014 1.0362715 0.15296036 0.24546051 0.25470403 0.6644216 0.2578012 0.31434295
0.12267987 -0.19257705 0.05346228 0.33982885 0.17756616 -0.03526372 -0.027923655 -0.7953437
-0.27206084 0.4849878 -0.22588961 0.5664252 0.21395595 0.07742338 0.8149093 0.75979215
0.3982099 0.13362548 0.6345804 1.2529209 -0.90088505 0.45294294 0.69647497 0.57259834
-0.21964478 0.7554996 0.35715657 0.7372323 0.3609256 0.92257464 0.59716475 0.5142099
0.21219036 -0.16547826 0.042318538 1.0417238 0.5442855 -0.059258547 0.421044 -0.86494666
0.2655203 0.6063864 0.52815926 0.8551601 0.33483768 0.33421752 0.360226 0.50526214
0.39784914 0.23672138 0.50595057 0.8071318 -0.55406564 0.5275413 0.94801074 0.50485736
0.3766559 0.573063 0.95926887 0.7677036 0.2788264 0.60694623 0.01971861 0.44681403
-0.1442588 0.06283974 -0.042871527 0.34545496 0.388884 -0.09007375 0.17257835 -0.9870432
00000000: f19d 303e 8ea5 1b3f 7db8 523e 2e00 673f
00000010: fda7 083f 9190 763e 7910 4a3f d1ce 1a3f
00000020: 1175 323f 3c12 f03d bfb2 283f cab3 af3f
00000030: 0c43 10bf b2f9 513f 6ecb 503f 0cb8 4b3f
00000040: 623b bd3e ecdb 403f ae96 2c3f a81b 5d3f
00000050: ed02 2a3f 0094 823f fac1 ad3e d17d 0b3f
00000060: 5955 233e 0e26 e33d b107 863d cd58 603f
00000070: 1500 1e3f f48d 25be 4e7b 0e3f b82f 2dbf
00000080: 7c9c c23e de1f 013f 2bf5 8d3e e523 683f
00000090: 6e9f 2b3f bf34 c73e 44d5 673f 3564 243f
000000a0: 976e 143f b1f1 a53e 2898 9a3e 1501 9f3f
000000b0: 1dd8 97bb 82dc 6d3f 1f7c 5b3f 2ebd 283f
000000c0: aad6 013f 233f 563f 6227 803f 6bdd 593f
000000d0: f593 ea3e 11b8 863f e372 de3e 2e96 103f
000000e0: d0d7 9c3d b31c cc3e 7a4d d13d 8486 0b3f
000000f0: d431 ff3e 755e 5fbe a86f 3f3e 52a5 f7be
00000100: b7d7 48bf 6170 afbe 4b8d 4fbe b653 9fbf
00000110: 20ac 8abf 99fc 6ebf 4be8 eebf 89cd a5be
00000120: 17c1 0abf 2bd6 0dc0 4b72 a03c 93af 0fbf
00000130: c1a7 b13f 938d 9abf a42a b8bf 7330 a5bf
00000140: 3f0e d8bf 185a 8dbe 79b2 073e 8367 c6bf
00000150: b9fc 88bf 8713 7cbf 8492 7ebf 5692 35bf
00000160: 4208 723f c89f 21bf 9994 013e cc57 27be
00000170: 2239 dbbf 9d3a df3f 55f4 81bf 7019 e13f
00000180: 464b bc3e 378e 4f3f 3c7c ff3e c2e2 833f
00000190: 7f28 ef3e 3fdb cc3e d975 323f e9d2 183f
000001a0: 4256 d13e 59aa 813e 3636 c53e 68e7 c53f
000001b0: 1337 6bbe 2730 4d3f c6ef 583f d8cb 423f
000001c0: 235b 0a3f fa1d 4c3f 8336 333f ab97 683f
000001d0: 381e 213f c5fb 6d3f 230d 0b3f c267 343f
000001e0: 35b9 7cbc 4aa2 923e c749 a8bd 73f9 193f
000001f0: 4990 503f 992b 96be e249 943e a128 37bf
00000200: 6db6 3abf cd3a a03d 88e9 babf 390d 07bf
00000210: 2e24 a4be a680 cebe 63dc 9ebf f57d aebe
00000220: 3691 cdbf 9c1f 4cbf 23f8 d33e fc9e 8cbf
00000230: a538 b63f 71e9 6d3d cc97 86bf 2633 5dbe
00000240: d3e1 33bd e813 99bf 6bab a8bf 8f57 55bf
00000250: 2120 e63e f034 8dbf aff3 123e 0809 97bf
00000260: fa7f 863e 1bbb 46bf 84e3 12bd d28c 5d3e
00000270: 0c4d cabe 2049 963f 4abc d03e aa1c 2040
00000280: 853c 24be 73ac 0f3e c409 713e 4356 e53e
00000290: 5ed7 cd3e c122 38bd 871e 693f abb7 3a3f
000002a0: 802f 253f 8c47 623e fdbd 31bc 0a7b 8c3f
000002b0: 43a8 59bf df54 e23e 3d78 e93e 8bee 6a3e
000002c0: 4f67 87bd 8ba4 843f a4a1 1c3e 005a 7b3e
000002d0: 9168 823e 8917 2a3f 85fe 833e 8ff1 a03e
000002e0: 953f fb3d eb32 45be 44fb 5a3d 0cfe ad3e
000002f0: e7d3 353e b170 10bd 26c0 e4bc a59b 4bbf
00000300: 8f4b 8bbe 5250 f83e 9b4f 67be 3e01 113f
00000310: 4517 5b3e 2690 9e3d e59d 503f bd81 423f
00000320: 2be2 cb3e 1ed5 083e dc73 223f b65f a03f
00000330: 67a0 66bf 23e8 e73e 2f4c 323f ce95 123f
00000340: 90ea 60be 6c68 413f 3add b63e 42bb 3c3f
00000350: 3ecb b83e da2d 6c3f cadf 183f 43a3 033f
00000360: 6e48 593e 2273 29be 3456 2d3d 3557 853f
00000370: 4b56 0b3f 17b9 72bd 1493 d73e 256d 5dbf
00000380: 47f2 873e 243c 1b3f 7235 073f c6eb 5a3f
00000390: d86f ab3e 8f1e ab3e 8b6f b83e dc58 013f
000003a0: e2b2 cb3e 1767 723e fa85 013f 31a0 4e3f
000003b0: 3fd7 0dbf f20c 073f d5b0 723f 553e 013f
000003c0: 0bd9 c03e 42b4 123f a592 753f 3988 443f
000003d0: 55c2 8e3e d460 1b3f ec88 a13c cfc4 e43e
000003e0: 94b8 13be 1fb2 803d 0e9a 2fbd 79df b03e
000003f0: ce1b c73e 9678 b8bd 61b8 303e ddae 7cbf

fc2.bias f4 [32]
-0.5612736 -0.5947162 0.26431608 -0.5103986 0.80630326 -0.29239127 -0.42778358 -0.41518432
-0.021911371 -0.7065081 -0.28337133 1.1563497 -0.65265703 -0.43170458 -0.37146193 -0.3605627
-0.42972854 0.79443574 -0.54254824 -0.21672158 -0.31178617 -0.45015475 -1.2620374 -0.64159596
-0.5341196 -0.08060405 1.3086728 -0.31910866 0.7862622 -0.21344501 -0.40435228 1.4179771
00000000: a0af 0fbf 523f 18bf 7054 873e 7ca9 02bf
00000010: e469 4e3f 4fb4 95be 7306 dbbe 0a93 d4be
00000020: 7a7f b3bc b7dd 34bf 0c16 91be 4403 943f
00000030: 8814 27bf 6208 ddbe 4230 bebe ad9b b8be
00000040: 6105 dcbe 2460 4b3f 71e4 0abf 43ec 5dbe
00000050: 70a2 9fbe af7a e6be 718a a1bf a23f 24bf
00000060: 10bc 08bf bc13 a5bd 9782 a73f 3662 a3be
00000070: 7b48 493f 5491 5abe 4307 cfbe 4680 b53f

fc3.weight f4 [4, 32]
-0.6599652 -0.49453697 4.2722816 -0.62315273 1.9903526 -0.23052296 -0.8769182 -0.3975302
2.1685839 -0.67564493 -0.50860095 2.7083979 -0.645528 -0.5853028 -0.4145524 -0.4188981
-0.3667907 -0.9243979 -0.69295704 0.058440227 -0.41841853 -0.33975407 -0.57945067 -0.58600813
-0.7055639 0.14148937 2.874456 -0.40217555 1.2708402 -0.4557221 -0.525094 2.2288778
-0.76614803 -0.63108075 3.91916 -0.64325184 2.8084774 -1.1912763 -0.9879335 -0.51695365
3.478812 -0.29271623 -0.7505396 2.1663692 -0.8677565 -0.5038321 -0.7482541 -0.44441012
-0.5269725 0.5730192 -0.52199996 -0.14573215 -0.6303552 -0.6460087 -0.091100715 -0.75624794
-0.7418436 -0.12226032 1.3849244 -0.33533654 3.7281532 -0.449797 -0.49307057 1.2206154
-0.26410297 -0.47379193 4.087624 -0.3857468 3.1886334 -0.18230574 0.01801363 -0.46571878
0.8735645 -0.80789316 -0.51984924 2.5175898 -0.35823408 -0.5294717 -0.49595678 -0.51010525
-0.65761024 -1.8198771 -0.011484856 0.04425952 -0.43360093 -0.51562274 -1.4996088 -0.38068834
-0.1477471 -0.056532387 -0.14835383 -0.5893065 0.29766986 -0.7268895 -0.59412146 2.9408486
-0.5676973 -0.41788727 4.6200886 -0.6190609 1.7061439 -0.6237511 -0.54812574 -0.65804356
1.9314905 -0.6386895 -0.189108 2.3893023 -0.21656108 -0.49389273 -0.2209165 -0.58387464
-0.44289014 -0.69108766 -0.6895383 0.048859827 -0.4891197 -0.33119217 -0.88892645 -0.66652715
-0.49537235 -0.14981404 4.512224 -0.6027202 0.90674615 -0.62546426 -0.41663048 2.522114
00000000: 7bf3 28bf f333 fdbe 88b6 8840 f086 1fbf
00000010: e0c3 fe3f 360e 6cbe b67d 60bf 1489 cbbe
00000020: 14ca 0a40 11f7 2cbf ac33 02bf 6456 2d40
00000030: 5341 25bf 68d6 15bf 3640 d4be d079 d6be
00000040: fecb bbbe 57a5 6cbf a265 31bf 055f 6f3d
00000050: f43a d6be 3ff4 adbe e156 14bf a104 16bf
00000060: d69f 34bf 97e2 103e 16f7 3740 f4e9 cdbe
00000070: e4aa a23f 6854 e9be 8f6c 06bf efa5 0e40
00000080: 4722 44bf 828e 21bf 84d3 7a40 27ac 24bf
00000090: 18be 3340 be7b 98bf 36e9 7cbf 1357 04bf
000000a0: dba4 5e40 e7de 95be 5d23 40bf cba5 0a40
000000b0: 4a25 5ebf 24fb 00bf 958d 3fbf b989 e3be
000000c0: abe7 06bf 63b1 123f caa1 05bf cf3a 15be
000000d0: f55e 21bf d360 25bf 0393 babd 7799 41bf
000000e0: 76e9 3dbf 9e63 fabd 3445 b13f 3bb1 abbe
000000f0: 109a 6e40 cb4b e6be bf73 fcbe 203d 9c3f
00000100: 8138 87be db94 f2be d1cd 8240 9b80 c5be
00000110: 9212 4c40 5bae 3abe 5291 933c b172 eebe
00000120: eca1 5f3f 16d2 4ebf d714 05bf 3120 2140
00000130: 756a b7be 758b 07bf 0cee fdbe 4296 02bf
00000140: 2559 28bf bcf1 e8bf fa2a 3cbc 7849 353d
00000150: f100 debe daff 03bf 2ef3 bfbf 95e9 c2be
00000160: 044b 17be 818e 67bd 11ea 17be cadc 16bf
00000170: 2f68 983e 6e15 3abf 5818 18bf dd36 3c40
00000180: 9c54 11bf 52f5 d5be c4d7 9340 c67a 1ebf
00000190: ec62 da3f 27ae 1fbf f851 0cbf 8b75 28bf
000001a0: 153b f73f 2881 23bf 87a5 41be 54ea 1840
000001b0: 30c2 5dbe 82df fcbe ef37 62be cf78 15bf
000001c0: 7fc2 e2be 1feb 30bf 9585 30bf 3e21 483d
000001d0: e66d fabe 0592 a9be af90 63bf 86a1 2abf
000001e0: 72a1 fdbe da68 19be 2464 9040 df4b 1abf
000001f0: 8420 683f 6d1e 20bf 9750 d5be 516a 2140

fc3.bias f4 [4]
0.7050703 0.40654984 0.123898014 0.14131759
00000000: 7d7f 343f 4d27 d03e 3ebe fd3d 8fb5 103e
