Deep Q_Network/q_learning_2015_priotized_experience/checkpoint.pth (torch_old, 6988 bytes, 6 tensors)

fc1.weight f4 [32, 8]
0	0x3f4930a2	0.7858983
1	0xc01422df	-2.3146284
2	0x3d83369d	0.06406901
3	0xbfb50119	-1.414096
4	0xbdc90246	-0.09814887
5	0xbab0618b	-0.0013456804
6	0x3e565236	0.20929798
7	0x3e8eab19	0.27864912
8	0xbe85b381	-0.26113513
9	0x3f9dff3b	1.2343515
10	0xbf2b40fa	-0.6689602
11	0xbf200829	-0.6251245
12	0xbede0871	-0.43365815
13	0xbe72f6ff	-0.23727034
14	0xbe07deb5	-0.1326855
15	0xbe5a0337	-0.21290289
16	0xbeb7cf6c	-0.35900438
17	0xbefbe4c8	-0.49197984
18	0x3ea19d1a	0.3156517
19	0x3f14a116	0.580583
20	0x3e9d8709	0.30767086
21	0x3e57bc9e	0.21068045
22	0x3f348a8d	0.7052391
23	0x3f002d57	0.50069183
24	0xbdb039d7	-0.08604782
25	0x3f90108d	1.1255051
26	0x400d74c8	2.2102528
27	0xc0264c09	-2.5983908
28	0x3e0d8835	0.1382149
29	0x3cfb38a1	0.030666651
30	0xbee94e06	-0.4556734
31	0xbce8d9d9	-0.02842419
32	0xbf1d67ef	-0.61486715
33	0xbfa1c1a7	-1.2637223
34	0xbf250a1f	-0.6446857
35	0xbf1611f7	-0.5862116
36	0x3fc1762e	1.511419
37	0x3e943a7d	0.28950873
38	0x3e8bd757	0.2731273
39	0xbc073383	-0.008252027
40	0x3f4a5db1	0.7904921
41	0xbf4d5630	-0.80209637
42	0x3fa68c49	1.3011562
43	0x3e6872f8	0.22700107
44	0xbf287e89	-0.6581808
45	0xbeb3d647	-0.35124418
46	0x3ec787d1	0.38970807
47	0x3f05ddba	0.5229145
48	0xbe80c639	-0.25151232
49	0xbd2a0836	-0.041511737
50	0xbddfcad7	-0.109273605
51	0x3c2a8544	0.01040775
52	0x3f5d7772	0.86510384
53	0x3f08baaa	0.53409827
54	0x3f02f8d6	0.51160944
55	0xbf5361ed	-0.825713
56	0x3f1fc5a4	0.6241095
57	0xc04c68cf	-3.193897
58	0xbeeb93f3	-0.46011314
59	0xc007041d	-2.109626
60	0xbed62e1b	-0.4183205
61	0x3e125e2f	0.1429374
62	0x3e8e0ede	0.27745718
63	0x3de861b8	0.11346763
64	0xbe47697f	-0.19473837
65	0x3ed617f6	0.41815156
66	0x3dfb4c41	0.12270404
67	0xbe55194b	-0.2081043
68	0x3ecb185a	0.39667016
69	0x3f609ca6	0.87739027
70	0x3eecee13	0.46275386
71	0xbf87f568	-1.0621767
72	0xbe8e8a8e	-0.27840084
73	0x3f95396b	1.1658148
74	0xbde4237b	-0.1113958
75	0x400502ae	2.0782886
76	0x3f76ec40	0.9645424
77	0x3d74f6a5	0.05980553
78	0xbec3bc18	-0.38229442
79	0xbd51e971	-0.051248018
80	0xbf5ac24b	-0.8545272
81	0x3f8163ac	1.0108542
82	0xbeba997f	-0.36445233
83	0xbf3cd925	-0.73768836
84	0xc002c7d4	-2.0434465
85	0x3f9cb3a1	1.2242318
86	0x3f1b1e1e	0.6059283
87	0xbdaa8327	-0.083257966
88	0x3dd5602a	0.104187325
89	0xbdb077d1	-0.08616603
90	0x3e0bdc59	0.13658275
91	0x3f0621ae	0.5239514
92	0x3f95a51a	1.169101
93	0x3f2dc657	0.6788077
94	0xbf49bce2	-0.7880384
95	0xbf705c60	-0.93890953
96	0xbd6e414d	-0.058167744
97	0x3f476923	0.778948
98	0xbfb0d3d6	-1.3814647
99	0xc00937b2	-2.1440244
100	0x3f6ee4d5	0.9331792
101	0x3dae29cc	0.08504066
102	0xbebd9506	-0.37027758
103	0xbc0daeba	-0.008647615
104	0xbf3a8352	-0.7285663
105	0xbfa2508d	-1.2680832
106	0xc011fa91	-2.2809184
107	0x3d487ebe	0.048948996
108	0x3f1e19a9	0.61757904
109	0x3f021b55	0.50822955
110	0xbdd36138	-0.103212774
111	0xbe7516eb	-0.23934524
112	0x3d9d8a2c	0.0769237
113	0xbf66c825	-0.90149146
114	0x3febb31c	1.8414035
115	0xbe8841ef	-0.26612803
116	0xbf8fb81d	-1.1228062
117	0xbde66bc9	-0.11251027
118	0x3e943df5	0.2895352
119	0x3eb296cb	0.3488067
120	0x3ea950dc	0.33069503
121	0x3e783cc9	0.24241938
122	0x3ee2e3e6	0.44314498
123	0x3d98c80b	0.0746003
124	0xbeea7866	-0.45794982
125	0xbf50ce27	-0.81564564
126	0xbf9e900a	-1.2387707
127	0x3e3672f4	0.17817289
128	0x3dd9a132	0.10626449
129	0xbd29dbb7	-0.041469302
130	0xbe2003bb	-0.15626423
131	0xbd7515f4	-0.05983539
132	0xbfb604bc	-1.4220195
133	0xbf4db891	-0.8035975
134	0x3f0d47db	0.5518777
135	0x3ef08584	0.46976864
136	0xbee52926	-0.44757956
137	0x3d86b378	0.065772
138	0x3da7053f	0.081552975
139	0xbeae4af9	-0.34041575
140	0x3ed20f9e	0.4102754
141	0x3f77a7b8	0.96740294
142	0x3ef029e6	0.46906966
143	0xbefe9977	-0.4972646
144	0xbefc2b0a	-0.49251586
145	0xbefacca4	-0.48984253
146	0x3fa9ac28	1.3255663
147	0x3e28a42b	0.16468875
148	0xbdd3afeb	-0.10336288
149	0xbf15f935	-0.58583385
150	0xbf941a2e	-1.157049
151	0x3ee59eb5	0.44847646
152	0xbf8d3814	-1.1032739
153	0x3b749a9c	0.00373236
154	0xbf866fd9	-1.0502883
155	0xbf5d3752	-0.8641254
156	0x3e9f26ae	0.31084198
157	0x3e8c2a70	0.27376127
158	0xbe95e3aa	-0.29275256
159	0xbed460b5	-0.41480032
160	0xbd3bb989	-0.045831237
161	0xc034a07d	-2.8222954
162	0x3d2c2b86	0.042033695
163	0xc0101995	-2.2515614
164	0xbee589a6	-0.4483158
165	0x3d4e3c15	0.050350267
166	0xbd5d38fc	-0.054009423
167	0xbc73231c	-0.014839914
168	0x3f202a45	0.625645
169	0xbfdc9528	-1.7233019
170	0x3f1591d5	0.5842565
171	0xbf8fd394	-1.1236444
172	0x3f233f2c	0.6376827
173	0x3dd64a66	0.10463409
174	0xbcfc3640	-0.030787587
175	0x3e3b5df7	0.18297563
176	0x3b6b4d0f	0.0035904085
177	0xbf9f2009	-1.2431651
178	0x3e5ee014	0.21765167
179	0xbff0d588	-1.8815165
180	0xbfa6f8a8	-1.3044634
181	0xbedddfca	-0.433348
182	0x3e28aa1f	0.16471146
183	0x3cc3142d	0.023813331
184	0x3f234ac5	0.63785964
185	0xbfa995ae	-1.3248804
186	0xbf4af5cb	-0.792813
187	0xbfa114ba	-1.258445
188	0xbf8368aa	-1.0266316
189	0xbfbaf2ae	-1.460531
190	0xbdebf67f	-0.11521625
191	0x3ec958ec	0.39325655
192	0x3ce8f59d	0.02843743
193	0xbe132bd6	-0.14372191
194	0xc0382624	-2.877328
195	0xbfe6e5b8	-1.8038855
196	0x3fa885af	1.3165797
197	0xbf0cbeb8	-0.54978514
198	0x3effb0e3	0.4993964
199	0x3e9e8969	0.3096421
200	0xbdb7e0e9	-0.08978445
201	0xbf04bfe7	-0.5185532
202	0xbfe4c225	-1.7871748
203	0xbf22ee44	-0.63644814
204	0x3f4297de	0.7601298
205	0x3e620876	0.2207354
206	0x3eb61502	0.35562903
207	0x3e13e5dd	0.14443155
208	0x3fa06acd	1.2532593
209	0xbe712856	-0.23550543
210	0x3d2ef67c	0.042715535
211	0x3e990eca	0.29894096
212	0xbf3947d5	-0.7237523
213	0xbeb939c5	-0.36176887
214	0x3ee1cfd2	0.44103867
215	0x3c1b5db8	0.0094827935
216	0x3eeac0c0	0.45850182
217	0xc058a2b0	-3.3849297
218	0x3f90ef9e	1.1323125
219	0xc017a56d	-2.3694718
220	0xbe615a75	-0.22007163
221	0x3cec0473	0.028810715
222	0x3d6c4646	0.057684205
223	0xbd5130d4	-0.051071957
224	0xbfe31f33	-1.7743896
225	0xbd4827d1	-0.048866097
226	0xbf850af2	-1.0393965
227	0xbf1ede9d	-0.6205843
228	0x3f3c496e	0.73549545
229	0x3e27bf8f	0.16381668
230	0x3db3f603	0.087871574
231	0x3cfd0b63	0.030889219
232	0xbe026ad3	-0.12736063
233	0x3f9c4ed1	1.2211553
234	0x3fafa718	1.3722868
235	0xbffc518a	-1.9712384
236	0xbdd19a1a	-0.10234471
237	0xbe9578f3	-0.2919384
238	0x3f17006a	0.58985007
239	0xbf083f50	-0.5322161
240	0xbeb20882	-0.34772116
241	0x3e674462	0.2258468
242	0x3f503930	0.8133726
243	0x3e94f48a	0.29092818
244	0x402d813b	2.7110126
245	0x3db3b1c9	0.08774144
246	0xbd6e1934	-0.058129504
247	0xbe659c5f	-0.22422932
248	0x3c321520	0.010869294
249	0xbe9c4ab2	-0.30525738
250	0xbf085de8	-0.5326829
251	0xbfac5ec4	-1.346642
252	0x3f7cd0d2	0.98756135
253	0x3f028012	0.5097667
254	0x3eef4585	0.46732727
255	0xbe5752f9	-0.21027745

fc1.bias f4 [32]
0	0xbeed9d22	-0.46408945
1	0x3f96a183	1.176804
2	0xbe913c0c	-0.28366125
3	0x3ed96721	0.42461494
4	0xbe9897b4	-0.2980324
5	0xbe2b4529	-0.16725601
6	0x3e9e2a36	0.3089158
7	0x3f7368c6	0.95081747
8	0xbf00ebb9	-0.50359684
9	0x3eeea75a	0.46612054
10	0xbef2e44d	-0.47439805
11	0x3e60be65	0.2194763
12	0x3ebc10e6	0.36731642
13	0x3df2c257	0.11853474
14	0xbf2a96e3	-0.66636485
15	0x3cefb768	0.02926226
16	0x3d0e2ad4	0.034708813
17	0x3cab2be3	0.02089495
18	0xbe803774	-0.25042307
19	0xbd41bfbc	-0.047301993
20	0x3f4a5fdf	0.7905254
21	0xbe6dfc82	-0.23240855
22	0xbe1d5bd6	-0.15367064
23	0x3ed6e599	0.41972044
24	0x3e8e724b	0.27821574
25	0xbef5f4ec	-0.48038423
26	0xbef26692	-0.4734388
27	0x3f5068c8	0.81409883
28	0xbda62398	-0.08112258
29	0x3feb6e53	1.8393043
30	0xbe537a5e	-0.20652148
31	0xbf02f1ea	-0.5115038

fc2.weight f4 [32, 32]
0	0x3fa576ec	1.2926917
1	0xbe39a355	-0.18128712
2	0x3e6b14dd	0.22957177
3	0x3f1bb661	0.60825163
4	0x3fa92128	1.3213243
5	0x3f25441e	0.64557064
6	0x3e889671	0.26677278
7	0xbef4b56e	-0.4779467
8	0x3d84da73	0.064869784
9	0x3ea38f85	0.31945434
10	0xbf447a92	-0.7674953
11	0x3e8b8aa0	0.272542
12	0x3eb68e16	0.35655278
13	0xbebd91e8	-0.3702538
14	0x3fc1918c	1.5122542
15	0x3ebc4dc9	0.36778095
16	0x3f376bef	0.7164907
17	0x3eef9f44	0.46801198
18	0x3f4fe802	0.8121339
19	0x3f954323	1.1661114
20	0xbefaa18c	-0.48951375
21	0x3fb1e5b3	1.3898224
22	0x3f559d53	0.8344318
23	0x3d783b49	0.060603414
24	0xbe146fdc	-0.14495796
25	0x3fd7125b	1.6802477
26	0x3f5cec15	0.8629773
27	0xbe6ee895	-0.2333091
28	0x3f1fb872	0.62390816
29	0x3dfe8239	0.12427182
30	0xbf5f54de	-0.8723887
31	0x3f22affb	0.63549775
32	0x3fb8bfe6	1.4433563
33	0xbe71de8e	-0.23620054
34	0x3eb2d811	0.3493047
35	0x3f2197c7	0.6312222
36	0x3fd57d39	1.667884
37	0x3f38cb32	0.7218505
38	0x3f313e77	0.6923594
39	0xbe990bba	-0.2989176
40	0x3e6f9db8	0.23400009
41	0x3f2ecc23	0.6828024
42	0xbf2baf38	-0.6706424
43	0x3ebcbbd7	0.3686206
44	0x3f459d9a	0.77193606
45	0xbe4281ec	-0.18994874
46	0x3fecd025	1.8501021
47	0x3f311293	0.69168967
48	0x3f5c9551	0.8616534
49	0x3f4a10f5	0.78932124
50	0x3f8faefb	1.1225275
51	0x3f68472d	0.90733606
52	0xbf0d16e2	-0.5511304
53	0x3fba529e	1.4556463
54	0x3fd35275	1.6509539
55	0x3e3d7250	0.18500638
56	0xbe1847b9	-0.1487111
57	0x3fcb35e0	1.5875816
58	0x3f8342be	1.0254743
59	0xbf0a7fb2	-0.541011
60	0x3f57e6ca	0.8433653
61	0x3e322aa9	0.17399086
62	0xbfeb1328	-1.8365221
63	0x3fab4104	1.3379216
64	0x3fb472c8	1.4097528
65	0xbf16872b	-0.588
66	0x3e9e6800	0.3093872
67	0x3f0e6d80	0.55635834
68	0x3fcc1a7b	1.5945581
69	0x3ea70fc0	0.32629204
70	0x3e626952	0.22110489
71	0x3de8b893	0.1136333
72	0xbe01d6c1	-0.12679578
73	0x3f4648cd	0.77454835
74	0xc00b8b2f	-2.18037
75	0x3fbfdc28	1.4989061
76	0x3de2e28e	0.11078368
77	0xbea030da	-0.3128727
78	0x3faf005c	1.3671985
79	0x3f5b9294	0.85770535
80	0x3eee7049	0.46570042
81	0x3f00d942	0.5033151
82	0x3f9e1394	1.2349725
83	0x3f393006	0.723389
84	0xbd21a9fa	-0.039468743
85	0x3f8196ef	1.0124186
86	0x3f698b64	0.9122832
87	0x3dfe929f	0.124303095
88	0x3e760176	0.24023995
89	0x401d4a43	2.4576576
90	0x3f6d13ce	0.92608345
91	0x3ec2e7df	0.3806753
92	0x3f6bd424	0.92120576
93	0xbeef2f48	-0.4671576
94	0xbf5fc10b	-0.87403935
95	0x3f8bb6fe	1.091522
96	0x3fc60f6c	1.5473456
97	0xbe37e671	-0.17959
98	0x3f0f8467	0.56061405
99	0x3f26a1ee	0.65090835
100	0x3fa9a1fb	1.3252558
101	0x3f32fa58	0.69913244
102	0x3eedd68b	0.46452746
103	0xbecc4f6b	-0.3990434
104	0xbd5ff79c	-0.054679498
105	0x3eb46b63	0.3523818
106	0xbf4853ef	-0.7825307
107	0x3f1c03a3	0.6094305
108	0x3f1ede52	0.62057984
109	0xbea07f46	-0.31347102
110	0x3fdba64c	1.7160125
111	0x3f246935	0.64223033
112	0x3f45ddaf	0.7729139
113	0x3f41036c	0.75395846
114	0x3f2e3795	0.6805356
115	0x3f86d7a0	1.0534554
116	0xbf050995	-0.51967746
117	0x3fb63a7a	1.4236596
118	0x3fbbbe03	1.4667362
119	0x3db78e39	0.08962674
120	0xbe8007ec	-0.25006044
121	0x3fcce762	1.6008112
122	0x3f55a7ad	0.8345898
123	0xbf18ae8c	-0.5964134
124	0x3f7252df	0.946577
125	0x3dc5046d	0.09619985
126	0xbfca320b	-1.5796522
127	0x3f68b8e8	0.90907145
128	0xbfbae54e	-1.4601228
129	0x3fdca1ea	1.7236912
130	0xbebbc1dd	-0.36671343
131	0x3f77e607	0.9683537
132	0xbff2bc96	-1.8963802
133	0xbc0e51a7	-0.00868646
134	0xbfa4cd82	-1.2875216
135	0x3f4129e1	0.7545453
136	0xc03a7796	-2.913549
137	0xbe8eb048	-0.27868867
138	0x3fcaf373	1.5855545
139	0xbf3f815e	-0.74806774
140	0x3f0027d5	0.5006078
141	0xbd1ca2f8	-0.038241357
142	0xbf581a72	-0.8441535
143	0xbe3c4268	-0.18384707
144	0x3e5521fb	0.20813744
145	0xbfceb422	-1.6148722
146	0xbec2362d	-0.37931958
147	0xbe4a6418	-0.19764745
148	0x3f587238	0.84549284
149	0xbfcc1952	-1.5945227
150	0xbf8a33f2	-1.0797102
151	0xbe7243c6	-0.23658666
152	0x3fbfc23d	1.4981152
153	0xc0098c75	-2.1491978
154	0xbf17bf31	-0.5927611
155	0x3f9b2772	1.2121413
156	0xbfbacdf8	-1.4594107
157	0x3fb697da	1.4265091
158	0x40369a68	2.8531742
159	0xbf6c918a	-0.92409575
160	0xbe6b76b7	-0.22994505
161	0x3dd98697	0.10621374
162	0x3e955a0b	0.2917026
163	0x3f404292	0.7510158
164	0x3fae5e79	1.3622581
165	0x3e47cfb1	0.19512822
166	0x3f441131	0.7658873
167	0xbf3604c8	-0.71101046
168	0x3eeaba8c	0.4584545
169	0x3ecf17b9	0.40447786
170	0xbed04778	-0.40679526
171	0x3f6be960	0.92152977
172	0x3ef292f3	0.47377738
173	0xbd78e82b	-0.060768288
174	0xbddaa6cd	-0.10676346
175	0xbf17d9bf	-0.5931663
176	0x3eade0ac	0.33960474
177	0x3eca5e98	0.39525294
178	0x3f768514	0.9629681
179	0x3e002000	0.12512207
180	0xbf98a8c4	-1.1926503
181	0xbf8565f5	-1.042174
182	0xbe952f22	-0.29137522
183	0x3e86dfb5	0.2634255
184	0x3ec80d2d	0.39072552
185	0xbed72578	-0.42020774
186	0xbf4d2687	-0.80136913
187	0xbff46d8a	-1.9095929
188	0x3f5cf925	0.86317664
189	0x3f1850ce	0.594983
190	0xc0048cad	-2.0710862
191	0x3f23a49f	0.63923067
192	0x3f8b2cbd	1.0873028
193	0xbe2f20a2	-0.17102292
194	0x3d8f6f62	0.070036665
195	0x3f13d991	0.57753855
196	0x3f955499	1.1666442
197	0x3f363445	0.71173507
198	0x3e8e7763	0.2782546
199	0xbe996f27	-0.29967615
200	0x3d80b64e	0.06284772
201	0x3e4b769d	0.19869466
202	0xbf783049	-0.9694868
203	0x3ea5c979	0.32380274
204	0x3ee2317c	0.4417838
205	0xbf03a655	-0.5142568
206	0x3fbbb06b	1.4663213
207	0x3cf2c7a4	0.029636212
208	0x3ed447bb	0.41460976
209	0x3ed9b5b5	0.42521444
210	0x3f56ba66	0.8387817
211	0x3fa72efb	1.3061212
212	0xbf3deb16	-0.7418684
213	0x3fb42363	1.4073299
214	0x3f523610	0.8211374
215	0x3e0c0ae3	0.13676028
216	0xbda61a27	-0.08110457
217	0x3fda3763	1.7048153
218	0x3f3d46f2	0.7393638
219	0xbe55e498	-0.20887983
220	0x3f118c7a	0.56854975
221	0x3e361bfe	0.17784116
222	0xbf1bf783	-0.6092455
223	0x3f1e5679	0.61850697
224	0x3f8167cd	1.0109802
225	0xbf16883c	-0.5880163
226	0x3db20fc9	0.08694417
227	0x3f40c731	0.7530394
228	0x3ebe9f7c	0.37231052
229	0x3e756d5a	0.23967496
230	0xbfb0c123	-1.3808941
231	0x3f1383da	0.57623065
232	0xbf4c368f	-0.7977075
233	0xbf8c55fb	-1.0963739
234	0xbec5e4c5	-0.386511
235	0x3fcb0e71	1.5863782
236	0xbf527738	-0.82213163
237	0xbe6668bb	-0.22500889
238	0x3f77837a	0.9668499
239	0x3f067a98	0.52530813
240	0xbde84319	-0.11340923
241	0xbfca843c	-1.5821605
242	0x3f486026	0.7827171
243	0xbd95d618	-0.07316226
244	0xbe424400	-0.18971252
245	0x3fd08467	1.6290406
246	0x3f018b1f	0.50602907
247	0xbe0eb683	-0.1393681
248	0xbf73bf24	-0.9521353
249	0x3dbf10d3	0.09329381
250	0xbd6ee99e	-0.058328263
251	0x3f3b8e6f	0.7326421
252	0x3edf3897	0.43597862
253	0x3e54ddc9	0.2078773
254	0xbf9680dc	-1.1758075
255	0x3e578856	0.21048102

fc2.bias f4 [32]
0	0xbec42b3e	-0.3831424
1	0xbedd3eb8	-0.43211913
2	0xbee18918	-0.44049907
3	0xbeba8256	-0.36427563
4	0x3f8afb96	1.0858028
5	0x3eaa611e	0.3327722
6	0xbe81fe01	-0.25389102
7	0xbf04541f	-0.5169086
8	0xbe50f9ac	-0.20407742
9	0xbdab84d7	-0.083749466
10	0xbd459acd	-0.048243333
11	0x3f97a837	1.184821
12	0xbeff4dda	-0.49864084
13	0xbdd6ae2e	-0.10482441
14	0xbd0abf03	-0.03387357
15	0xbe1df0a6	-0.15423831
16	0xbdef1306	-0.1167355
17	0x3f0ef016	0.5583509
18	0xbf3ec312	-0.74516404
19	0xbe57eac4	-0.2108565
20	0x3c709180	0.014683127
21	0xbdb91de1	-0.09038902
22	0x3c81018b	0.015747806
23	0xbee0ed0c	-0.43930852
24	0xbeb8190b	-0.35956606
25	0x3eacef64	0.3377639
26	0x3f002aa2	0.5006505
27	0x3f39d981	0.7259751
28	0xbe7c70c7	-0.24652396
29	0x3dcfbcce	0.101434335
30	0xbddca69e	-0.10773967
31	0x3fe19f06	1.7626655

fc3.weight f4 [4, 32]
0	0xbf99d762	-1.2018855
1	0xbfa492d2	-1.2857306
2	0xc024befc	-2.5741568
3	0xbf8ebabd	-1.1150738
4	0x4006ec70	2.108181
5	0xbec04cc2	-0.37558562
6	0xbf9a4019	-1.2050811
7	0xbfbfab91	-1.4974233
8	0x407bf38d	3.9367402
9	0xbee72f8a	-0.45153457
10	0xbf9cfe5f	-1.2265128
11	0x401bf598	2.4368649
12	0xbfa0c58c	-1.2560287
13	0xbf981462	-1.188122
14	0xbf5ca71a	-0.86192477
15	0xbf18fcf1	-0.5976096
16	0xbf5eab37	-0.86980003
17	0x4004f64e	2.0775332
18	0xbf9d0924	-1.2268414
19	0x3d72c3e0	0.059268832
20	0xbf021ee5	-0.5082839
21	0xbf3cfc66	-0.7382263
22	0xbfbdd50b	-1.483064
23	0xbf7ea673	-0.9947273
24	0xbfb65e44	-1.4247518
25	0xc03c96a2	-2.946694
26	0x3d13d828	0.036094815
27	0x3ffb5c93	1.9637626
28	0xbfc9df79	-1.5771323
29	0xbfc62c14	-1.5482202
30	0xbf782442	-0.96930325
31	0x40026f89	2.0380576
32	0xbf346861	-0.7047177
33	0xbf32aed3	-0.6979801
34	0xbfbc4979	-1.4709922
35	0xbf2e0416	-0.67974985
36	0x40365f45	2.8495648
37	0xbff0a939	-1.8801643
38	0xbf4186e6	-0.75596464
39	0xbfcf8da7	-1.6215104
40	0x4081bb57	4.0541186
41	0xbf6a493c	-0.91517997
42	0xbf9d76af	-1.2301844
43	0x3ff3f59f	1.9059333
44	0xbf8abc19	-1.0838653
45	0xbf1fe89f	-0.62464327
46	0xbf9cdace	-1.2254274
47	0xbf141525	-0.57844764
48	0xbf712fdd	-0.9421366
49	0x406aa9c3	3.6666114
50	0xbe6edf38	-0.23327339
51	0xbe16ca3a	-0.14725581
52	0xbf260534	-0.6485169
53	0xbf8f7d44	-1.1210103
54	0xbfcfb3d3	-1.6226753
55	0xbf32f906	-0.6991123
56	0xbf11e9be	-0.5699729
57	0xbfeb56b2	-1.8385832
58	0xbf0435cd	-0.51644593
59	0x401191d2	2.2745252
60	0xbf804aa3	-1.0022777
61	0xbf44e567	-0.7691254
62	0xbf58cd1a	-0.8468796
63	0x3fc35a58	1.5261946
64	0xbede20a0	-0.43384266
65	0xbf7b6e85	-0.98215514
66	0xbf77854d	-0.96687776
67	0xbf5a396d	-0.85243875
68	0x3ffddab7	1.9832371
69	0xbfd9e3ec	-1.7022681
70	0xbe8e081f	-0.2774057
71	0xbf837950	-1.0271397
72	0x405cb2e1	3.448418
73	0xbf48e5dd	-0.78475744
74	0xbf8fd0d0	-1.12356
75	0x3ff9d7ad	1.9518944
76	0xbf3cf932	-0.7381774
77	0xbf87e702	-1.0617373
78	0xbf778915	-0.96693546
79	0xbf5b1c10	-0.85589695
80	0xbf9a661c	-1.2062411
81	0x3fbcd79b	1.4753298
82	0x3f92ca58	1.1468
83	0x3d821a72	0.063527
84	0xbf8806dd	-1.0627095
85	0xbf94d65a	-1.1627915
86	0xbfd21b2e	-1.6414545
87	0xbf436d4d	-0.76338655
88	0xbeab3d2d	-0.3344511
89	0xbf4b29f8	-0.79360914
90	0x3f02bb5a	0.51067126
91	0xbe4a045c	-0.19728225
92	0xbf79d649	-0.975926
93	0xbfe2c6c8	-1.7716913
94	0xbfa16f7f	-1.2612151
95	0x4011d1bf	2.278427
96	0xbf8a537c	-1.0806727
97	0xbf783370	-0.9695349
98	0xbf429417	-0.7600722
99	0xbfa0548c	-1.2525802
100	0x3ff66365	1.9249083
101	0xbf6a0cad	-0.9142559
102	0xbf803c8d	-1.0018479
103	0xbe73ca84	-0.23807722
104	0x408210be	4.0645437
105	0xbfd170fe	-1.6362607
106	0xbf04588b	-0.51697606
107	0x403053f7	2.7551248
108	0xbf35061a	-0.70712435
109	0xbf949388	-1.1607523
110	0xbf3d37bb	-0.7391316
111	0xbfc461aa	-1.5342305
112	0xbfa0c916	-1.2561367
113	0x40176a4f	2.3658636
114	0xbf9bed01	-1.2181703
115	0x3d3b2544	0.045689836
116	0xbfb95908	-1.4480295
117	0xbf6a23d7	-0.9146094
118	0xbf61cf68	-0.882071
119	0xbfa528ad	-1.2903038
120	0xbf87838d	-1.0587021
121	0xc00be5e1	-2.1859057
122	0x3fc0f6e5	1.5075346
123	0x403324d7	2.7991235
124	0xbf2756f6	-0.65367067
125	0xbf9dce83	-1.2328647
126	0xbf7caaa5	-0.9869788
127	0x3fb97a46	1.449044

fc3.bias f4 [4]
0	0x3f5cc6d8	0.8624091
1	0x3ef85101	0.484993
2	0x3e1e9ede	0.1549029
3	0x3e191164	0.1494804
