Evolution Strategy/CrossEntropy/checkpoint_own.pth (torch_old, 1082 bytes, 3 tensors)

fc1.weight f4 [16, 2]
000000 a8 c4 2f 3f c9 ef 83 3f 05 3c 1b bf 4b 7b ba 3f
       0.6865945 1.0307552 -0.6063846 1.4568876
000010 30 76 86 3e ec 25 95 bf 2d 5a 7b be f7 60 05 3e
       0.26262045 -1.1652198 -0.24546118 0.1302527
000020 63 03 94 bf 17 80 61 bf af 12 34 3f dd b5 3c 3e
       -1.1563534 -0.88086075 0.7034101 0.1842875
000030 d0 92 4f 3f f0 6c 15 3f ff 51 b8 bf 9a bf b2 bf
       0.81083393 0.5836935 -1.4400023 -1.3964722
000040 ce 54 ac 3f ae 1d 04 40 e5 bf b4 3f dd 2c cf 3e
       1.346338 2.0643115 1.4121062 0.40463915
000050 3c 35 db be c0 0f ce 3f 00 44 fa be ed 13 47 be
       -0.42814052 1.6098557 -0.48880005 -0.19441195
000060 43 b3 be 3e e6 a9 96 3f 4e ed 89 bc bf db 64 40
       0.3724614 1.1770599 -0.016836789 3.5759122
000070 90 b7 0c 3f d4 54 a3 bf 2d d3 34 bf ce a1 51 bf
       0.54967594 -1.2760262 -0.7063473 -0.8188752

fc1.bias f4 [16]
000000 46 48 69 be 4d 2d 73 bd 8b 9b f6 3e 1b c8 b2 bf
       -0.22781476 -0.059369374 0.48165545 -1.3967317
000010 40 76 95 bf 09 b6 f2 be b2 3a a0 bf 0d 31 95 3e
       -1.1676712 -0.47404507 -1.2517912 0.29138985
000020 13 f0 4a 3f 80 d8 c5 3d b0 86 a1 bf a1 75 8a bf
       0.79272574 0.09660435 -1.2619228 -1.0817147
000030 6c b9 dc bf c8 10 d0 3d de 64 14 be dd 9a e6 3e
       -1.7244086 0.10159451 -0.14491603 0.45040026

fc2.weight f4 [1, 16]
000000 ea 85 a0 3f a2 f3 99 3f 56 54 80 be c2 64 cb be
       1.2540867 1.2027476 -0.25064343 -0.3972531
000010 cc b5 b3 3f a0 54 a0 bf b5 fa 16 bf ff 20 b5 be
       1.4039855 -1.2525826 -0.589763 -0.35376737
000020 8e e3 10 3f 1a 86 cd 3e 2e c3 18 bf 3a 8b c8 be
       0.5659722 0.40141374 -0.5967282 -0.3916872
000030 6a 6e 9d bd 92 3e e4 3e f2 17 48 bd 9c 90 98 3e
       -0.076870754 0.44578987 -0.04885096 0.29797828
