Examples/dqn_dueling_cart_pole/checkpoint.pth (torch_old, 15985 bytes, 11 tensors)

feature_layer.0.weight f4 [32, 4]
000000 18 5d 28 3e b2 2c 45 3e 34 00 92 bf 71 d4 cc be
       0.16441762 0.19255331 -1.1406312 -0.4000583
000010 db 15 e3 be 36 6d 24 3e 26 b2 6e 3f 88 4a e1 3e
       -0.44352612 0.16057286 0.9324058 0.44002175
000020 84 a8 ba 3e b8 8c c4 3d aa f7 4b bf 25 3c d6 bd
       0.36456692 0.095971525 -0.7967478 -0.104606904
000030 54 36 a1 be 14 26 cb be 4f 3b 4a bf 47 9b 5f 3d
       -0.31486762 -0.3967749 -0.7899675 0.054591443
000040 dc 2e 79 3e ca e7 62 3d 94 00 b0 bf a9 10 44 be
       0.24334282 0.055396833 -1.3750176 -0.1914698
000050 47 0b 1b 3e 23 42 d0 3e b5 24 1a 3f 80 02 c2 3e
       0.1514102 0.40675458 0.6021226 0.37892532
000060 93 b0 12 be 9e fb b4 3d dd b8 6b 3f 06 09 ea be
       -0.1432517 0.08837055 0.92078954 -0.4571001
000070 5a 35 fd be 5f 4d 14 be 17 f9 16 3f fa 77 ef 3e
       -0.49454767 -0.1448264 0.5897383 0.46771222
000080 85 90 ab be 51 57 17 be f2 9b 78 bf a6 53 05 bf
       -0.33508697 -0.14779402 -0.97112954 -0.5208076
000090 24 8b 8e be 90 cb aa 3e a9 14 8e 3f f7 a1 ab 3e
       -0.2784053 0.3335843 1.1100055 0.33522007
0000a0 36 e0 cc bd 33 3a a0 be 0d 6b 27 3f 68 3d c6 be
       -0.10003702 -0.31294402 0.6539772 -0.38718724
0000b0 da 00 6c be 5f 39 fe bd 36 ee 02 3e 2a 0f 40 3e
       -0.230472 -0.124132864 0.12786183 0.18755785
0000c0 9d 02 8c be da 0b 98 bc d2 84 bd 3e 64 48 ef 3e
       -0.27345744 -0.018560339 0.37015396 0.46734917
0000d0 8e 0b 15 3e cb 96 97 3b e0 49 8d 3e dc 90 60 be
       0.14555189 0.00462613 0.27595425 -0.2193026
0000e0 d7 37 75 3e 00 f3 c5 be 5d 8e 4a bf 7e 4a 53 be
       0.23947082 -0.38661957 -0.7912348 -0.20633885
0000f0 5d 7e 9e 3d 74 d3 1e 3e 23 84 05 bf 29 f1 8a 3e
       0.07738946 0.1551035 -0.5215475 0.27137116
000100 42 79 c4 3e be 52 b0 3d e3 b0 c5 3e 8f b5 3b 3e
       0.38373762 0.08609532 0.38611516 0.18330978
000110 33 53 f1 3e 9f 0f b9 3e 00 0d 66 bf 5f 4f 14 be
       0.47133788 0.3614473 -0.89863586 -0.14483403
000120 55 cc 51 3e b4 e3 0b 3f a4 b8 ea 3e f3 ee cd 3e
       0.20488103 0.5464432 0.45843995 0.40221366
000130 80 9b 41 3e 62 a1 e4 be 38 44 53 bf 90 29 ba be
       0.18906975 -0.44654375 -0.8252597 -0.36359835
000140 e0 59 db be ef db f0 3e bf 8a 20 3f c5 91 18 bf
       -0.42842007 0.47042796 0.6271171 -0.59597427
000150 21 12 eb 3d 95 7e 2d be 4f cd 9a bf 72 0f a0 be
       0.11478067 -0.16942818 -1.2093905 -0.31261784
000160 cd 79 94 3e 2c 98 83 be 55 ed 7f 3f b2 60 c1 3e
       0.28999177 -0.25702035 0.99971515 0.37769085
000170 28 c2 20 3f 93 ae cf 3c 76 d6 b0 bf fa 78 ab be
       0.6279626 0.025351798 -1.3815448 -0.33490735
000180 be a0 77 3e 29 a1 1c 3e f7 27 c5 bd c1 07 a7 be
       0.24182412 0.15295853 -0.09626763 -0.32623103
000190 92 50 04 3f aa 16 bc 3e 4a d3 a9 be a0 4b 35 bd
       0.5168544 0.3673604 -0.33169013 -0.044261575
0001a0 c9 bf bd be 18 e3 07 3e 4d 9c ad be 2a c3 2e be
       -0.37060383 0.13270223 -0.3390831 -0.17066637
0001b0 ab 06 a7 3b 00 51 1d 3e 68 ee 74 3e 62 d1 86 3e
       0.0050972304 0.1536293 0.2391907 0.2633162
0001c0 68 87 e7 be ac 52 14 3f 3d d1 25 3f a2 5c ec be
       -0.45220494 0.5793865 0.647724 -0.46164423
0001d0 88 db fe bd 80 d2 b8 3c 18 67 95 3d d0 dd f2 3d
       -0.12444216 0.022561312 0.07295054 0.118587136
0001e0 7a 43 1b 3e 02 4e 06 bd 8c 3f 3d bf 6f f9 84 3e
       0.15162459 -0.032789238 -0.7392509 0.25971553
0001f0 27 83 d5 be f4 2b 59 be 7c 01 a1 be 16 8f a5 be
       -0.41701624 -0.21208173 -0.31446445 -0.32335728

feature_layer.0.bias f4 [32]
000000 d4 4f 56 bd 18 31 ac be 46 87 18 bb 88 d4 3b 3e
       -0.052322224 -0.33631206 -0.0023273989 0.18342793
000010 bb 87 ad be 26 c4 1a 3e a0 51 fc 3e 4d aa d8 3c
       -0.33892617 0.15113887 0.49281025 0.026448393
000020 46 2e 51 3e 31 5d 2e be 3c d8 87 3e 0b 2f 12 3f
       0.20427808 -0.17027737 0.2653216 0.5710303
000030 5b ff 29 3f d3 b2 e5 3e 58 05 20 3f 00 52 38 3b
       0.66405267 0.44862995 0.62508154 0.0028125048
000040 e3 6b d5 be 7f f5 4c be 60 71 ed 3e 58 32 c5 3d
       -0.41683874 -0.20015524 0.4637556 0.09628743
000050 42 a0 c1 be 98 49 97 be e7 bb 7c be aa 10 a2 be
       -0.3781758 -0.29548335 -0.24681054 -0.3165334
000060 45 e9 89 bd 90 8d e3 3e 51 fd 01 3f ea 4c 09 bf
       -0.06733946 0.4444394 0.50777155 -0.53632987
000070 6d 82 a5 3e 8a 52 c8 be 4c 46 f2 bc 93 f5 6a be
       0.3232607 -0.39125472 -0.029574536 -0.22945242

feature_layer.2.weight f4 [32, 32]
000000 97 82 c6 bd 24 b3 47 bd 43 43 56 be 48 34 b2 bd
       -0.09692877 -0.048754826 -0.20924096 -0.08701378
000010 20 d8 8e be ae b4 e9 3d 72 61 c2 3d 01 d4 1b 3e
       -0.27899265 0.11411415 0.094912425 0.15217592
000020 c8 57 63 be ee 39 1d be 96 43 98 3e 94 1d 85 3d
       -0.22201455 -0.1535413 0.29739064 0.06499782
000030 b0 4b 9e 3e 10 1f 6e 3e c8 51 7b bd d3 82 b1 3e
       0.3091712 0.23254037 -0.06135729 0.34670123
000040 31 92 96 be 7e 3d f0 bd 60 40 aa 3e 04 bd 69 be
       -0.2940841 -0.11730479 0.3325224 -0.2282601
000050 a9 af bf 3d 4f d1 02 bf dc f8 6b 3d a1 91 ec bd
       0.093596764 -0.5110063 0.057610378 -0.11551214
000060 7b 42 c0 3d 67 81 5e 3e c1 b4 18 3d a8 45 92 3c
       0.0938768 0.2172905 0.037281755 0.01785548
000070 e5 a3 5a bb 26 2b c4 3d ab f9 aa 3e 7e 04 91 3e
       -0.003336185 0.095785424 0.33393607 0.2832374
000080 cc 5f ff bd d0 2c 01 3c a2 36 ff bd eb 4b c7 bd
       -0.12469444 0.007884219 -0.12461592 -0.09731277
000090 40 f6 d2 bd 28 73 77 3d 5d be d7 bd 00 c2 7c bb
       -0.10300875 0.060412556 -0.10534356 -0.0038567781
0000a0 40 af f3 3b e2 60 e9 3d 0e d6 08 be 42 8b f8 bd
       0.007436663 0.11395432 -0.13362905 -0.12135936
0000b0 d0 38 d2 bd 2a 67 fd 3d e6 23 82 bd 11 b0 18 3e
       -0.102647424 0.123731926 -0.06354503 0.14910914
0000c0 7a ea 82 3d c0 5f b7 3c 80 7b ac ba 00 23 0f bd
       0.06392379 0.022384524 -0.0013159364 -0.034945488
0000d0 d8 b1 b5 3c d8 56 25 bd 80 ce a2 ba 40 c6 b8 3c
       0.02217953 -0.040366024 -0.0012421161 0.02255547
0000e0 20 98 0d be 7f c1 bd bd fb 2b 12 3e d8 e7 12 be
       -0.13827562 -0.09265422 0.1427459 -0.14346254
0000f0 10 f9 4f bc 43 12 33 3e 22 c8 82 3d c0 01 a4 3b
       -0.0126936585 0.17487435 0.063858286 0.0050050914
000100 e2 d5 0e be 4f 85 94 3e fd dd d8 bd e8 53 1c bd
       -0.13948777 0.29007956 -0.10589216 -0.038165957
000110 05 d1 70 3e fe 5b 67 3e 68 72 f7 3d 64 bf 68 3e
       0.23517235 0.22593686 0.12082368 0.2272926
000120 d4 3e 44 3e bc ae 86 3f 37 e2 82 3e e4 92 0f 3d
       0.19164592 1.0522075 0.25563213 0.035052195
000130 02 10 83 3e 66 6e 85 3c 55 a0 9d bb b4 74 8b be
       0.2559815 0.016287994 -0.004810373 -0.27237475
000140 da fd a9 3e 6f f5 be 3d be a5 20 3e 30 6a 56 3e
       0.33201486 0.093241565 0.15688226 0.20938945
000150 01 71 a1 bd 50 0f a7 3e 34 6d 6a 3e 03 5c 08 be
       -0.07882882 0.3262887 0.2289322 -0.1331635
000160 bf 77 6f bc 91 fb c1 38 50 9f 3c 3d aa 1f 46 3d
       -0.014615952 9.249815e-05 0.04605037 0.04837004
000170 71 87 6c 3e 74 a9 53 bd cc 7b be be 7d 2f a5 bc
       0.23098542 -0.051675275 -0.37203825 -0.020164246
000180 b4 2f 4f be aa 54 0f 3d 24 5c 21 be d6 68 ca bd
       -0.20233041 0.03499285 -0.15757805 -0.09883277
000190 78 93 ac be a3 b7 bd 3d 3a 72 78 3e 9b 9d 2f 3e
       -0.3370626 0.092635415 0.24262324 0.17149965
0001a0 92 9f 0a 3d 69 e2 a9 be a5 e2 83 3d f6 51 00 3e
       0.033843584 -0.3318055 0.064397134 0.12531266
0001b0 a8 54 6b 3e ff d3 0d 3e c7 63 a7 bd 36 e6 24 3d
       0.22981513 0.13850401 -0.08173328 0.04025861
0001c0 52 a7 a6 be 34 dd 59 bb 43 3a 1b bd a6 34 ad be
       -0.3254953 -0.003324342 -0.03789736 -0.3382923
0001d0 b7 c4 a1 3e ff 1a 12 bf 61 fd f2 bd b5 05 f0 bd
       0.31595394 -0.5707244 -0.118647344 -0.117198385
0001e0 e6 12 f3 3c 4a 20 91 bd 2b 8c 90 bd 7b b5 2e 3e
       0.029672097 -0.07086237 -0.07057985 0.17061417
0001f0 9e b6 2e 3e 97 2d 16 3e c4 4a a5 bd ed aa 01 3e
       0.1706185 0.14665829 -0.08070901 0.1266286
000200 2d d4 09 be 35 6d 7a 3d 5e 10 52 be 2b ce 09 3e
       -0.13459845 0.061139304 -0.20514056 0.13457553
000210 6d 5a 10 be e3 f2 f6 bc e6 95 6b bc b4 3b a7 bc
       -0.14096995 -0.030145114 -0.014379 -0.02041421
000220 14 f8 f7 3d 6f e8 6b be 1d de 1b 3e 42 ed 71 3c
       0.12107864 -0.23037885 0.15221448 0.014766039
000230 28 5d 7f bc c0 98 bd 3d 40 68 e9 bc 1a 9a 89 3d
       -0.015586175 0.092576504 -0.028492093 0.06718846
000240 e8 31 0e 3d 18 25 91 be 40 92 db bd cb 2d 2f 3e
       0.034715563 -0.28348613 -0.10721254 0.17107312
000250 6b ba 67 bd 65 a4 3b be 90 2e 21 be 5f 3c bb be
       -0.056574266 -0.1832443 -0.15740418 -0.36569497
000260 fd b7 01 3e 08 2e d0 bd f2 e3 54 3d ae 1a f1 3d
       0.12667842 -0.1016503 0.051975198 0.11772667
000270 3f 69 8f be 00 81 e4 3a 71 8f 75 bf 4f 18 14 3c
       -0.28009984 0.0017433465 -0.95922 0.009038999
000280 1d f3 67 3b 27 6c 29 3e 61 29 28 be bf a7 1e 3d
       0.003539271 0.16545163 -0.16422035 0.038734194
000290 15 1d 55 3e 02 16 a3 3e c7 7b 4c 3e 88 26 7c 3d
       0.20811875 0.31852728 0.19969092 0.061560184
0002a0 6a c9 7e 3e c5 0e 44 3f 78 48 dc bc a5 0a 84 bd
       0.24881521 0.76585037 -0.026890025 -0.06447343
0002b0 62 49 8e 3e 2b 56 64 3e 8c 92 ad bd 6d 70 8a be
       0.27790362 0.22298495 -0.08475217 -0.270389
0002c0 ed 13 bb 3e 34 24 db 3d a1 93 94 3e d5 49 b9 3e
       0.3653864 0.107002646 0.29018882 0.36189142
0002d0 b9 b6 76 be 73 80 98 3e 6b 64 6c 3e dd 0e 31 3c
       -0.2409314 0.297855 0.23085181 0.010806766
0002e0 a7 c1 18 be 81 6c 31 3e 6f f7 6e 3e 12 87 15 3e
       -0.14917623 0.17326547 0.23336576 0.14602306
0002f0 89 34 8e bc d8 bc 4f 3d 32 57 95 be 75 2e 08 3e
       -0.017359035 0.050717205 -0.29168087 0.13298972
000300 b7 5a 19 bd c5 9b 67 bd ad a4 8b 3d c8 31 07 3e
       -0.037440028 -0.056545038 0.06818519 0.13202584
000310 7e ea 7f be 6e 17 df 3d 91 57 6d bd 10 e1 99 3d
       -0.24991795 0.10893141 -0.057944838 0.075136304
000320 2f 1d 21 be 23 c7 d7 be da 4b 00 be eb fb 86 3e
       -0.15733789 -0.42144117 -0.12528935 0.26364073
000330 7f 56 4e 3e 99 d2 8f 3e 2b 22 a9 3e 01 56 bd 3d
       0.20150183 0.2809036 0.3303388 0.092449196
000340 71 ce c1 be 78 d4 6a bd 1c e6 ae bc 72 e4 a4 3e
       -0.37852815 -0.057331532 -0.02134996 0.3220554
000350 a5 c9 60 be 92 fa 34 bf 77 c0 89 be d0 b4 fd bd
       -0.21951921 -0.7069484 -0.26904652 -0.12388003
000360 6d ee ca 3d f7 36 87 3e 16 8c 50 3e 7e 1a 38 3d
       0.09908757 0.26409122 0.20365939 0.04494714
000370 39 18 36 3e d0 68 39 bd fb 2f 34 3e 91 29 c1 3d
       0.17782678 -0.045265973 0.17596428 0.09431756
000380 86 56 ba 3d 82 d8 ce 3d 5a cb 3a 3e 2d 29 0d 3e
       0.09098534 0.10099889 0.18241635 0.13785239
000390 84 3d 06 bf 03 0b 14 3e 6c 67 f7 3d 16 d1 64 bd
       -0.52437615 0.14457326 0.12080273 -0.055863462
0003a0 58 fe 14 3d 61 4a 1a 3f 27 d9 ad bc 19 32 83 3e
       0.036375374 0.60269743 -0.02122171 0.2562416
0003b0 2f 18 6a 3e 3d 4a 08 3e 24 30 ec 3d e5 4a 0e 3e
       0.22860788 0.1330957 0.115326196 0.13895757
0003c0 cd ed d8 bd cb 50 cd bd 70 34 b3 3c bd c8 35 3f
       -0.10592232 -0.10025176 0.02187559 0.7100943
0003d0 3e ba 6f be d4 2c 6d bf 27 7e 16 3e 00 dd b0 3d
       -0.2341089 -0.9264653 0.14696561 0.086359024
0003e0 e1 48 2e be 99 2f 66 3e 6b b6 19 3d 2b fd 5b be
       -0.17019989 0.22479095 0.037527483 -0.21483295
0003f0 b6 e0 1d 3e a0 58 ef 3b 58 73 58 be b7 82 5c be
       0.15417752 0.007304266 -0.2113775 -0.21534239

feature_layer.2.bias f4 [32]
000000 ad dc 0d 3d 8a 46 13 be e2 e8 01 3e d2 24 53 3e
       0.03463428 -0.14382377 0.12686494 0.20619515
000010 8f 80 4b 3e 17 60 3a bd 4e 35 1c 3e 89 cf 90 3e
       0.1987326 -0.045501795 0.15254709 0.28283337
000020 70 49 6e 3d 40 6c b6 3e 19 b6 18 3e 6e 29 0d be
       0.058175504 0.35629463 0.14913215 -0.13785335
000030 58 6d 80 3e 48 b6 a7 3d 97 09 62 3e d5 d9 a7 bd
       0.25083423 0.08189064 0.2207397 -0.08195845
000040 b4 e8 74 3e 75 db 8f 3e 65 6f 8a 3e 31 d3 2f be
       0.23916894 0.2809712 0.27038112 -0.17170407
000050 15 eb ce bb 02 7d ad bd 82 41 0d be f3 db 98 3e
       -0.006314645 -0.08471109 -0.1379452 0.29855308
000060 47 29 9e bd aa 27 f0 bd f0 53 8c 3d ae 21 19 3c
       -0.07722717 -0.11726315 0.06851947 0.009346409
000070 3a 9f 3c 3e f2 e4 1d be 60 21 87 3c ad a8 66 be
       0.18420115 -0.15419367 0.016495407 -0.22525282

value_stream.0.weight f4 [32, 32]
000000 99 9d 6b 3e fe 02 b3 3d bc 2f a2 38 fb 10 5d 3e
       0.23009337 0.08740805 7.733653e-05 0.21588509
000010 6f b9 7d 3e b4 d2 07 3e c0 60 f5 3d 88 11 28 3e
       0.24777769 0.1326397 0.11981344 0.16412938
000020 cd 13 52 ba 96 4c 67 3e 59 3f 20 3d 6a 35 cf 3d
       -0.0008013815 0.22587809 0.039122913 0.1011761
000030 e5 5a 6e 3e e5 97 eb 3c 35 83 8f 3e 45 86 54 bc
       0.23276861 0.028758952 0.2802979 -0.0129714655
000040 84 54 29 3d ae 0a f7 3d ab 85 6d 3e fb c7 fd bd
       0.041340366 0.12062584 0.23195522 -0.12391659
000050 8e 8b 3d 3e da c3 11 3d 15 0f 0a 3e 52 34 14 3c
       0.18510267 0.03558717 0.13482316 0.009045677
000060 c6 5a 78 be 22 9a a2 3d 56 78 38 3e a5 19 55 bd
       -0.24253377 0.07939555 0.18014655 -0.05202641
000070 a3 47 e2 3c f9 a0 25 be ae 4b 8b 3e 25 1b 44 bf
       0.02762205 -0.16174687 0.27206177 -0.7660392
000080 da 2b 9f 3e d4 20 10 bd 27 4a 5e 3e 3e d7 a1 3e
       0.31088144 -0.035187557 0.21707974 0.3160953
000090 89 45 38 3e 8e 8d 65 bd 94 36 6f 3e 65 96 53 3e
       0.17995276 -0.0560432 0.23360664 0.2066284
0000a0 0c e3 1e 3e 69 35 18 bd 41 7f 7f 3e 56 f9 1f 3e
       0.15516299 -0.03716031 0.24950887 0.15622458
0000b0 c5 2e 16 bd 2f 91 1a 3e 6f 6c 8d 3e ed fc 9e be
       -0.036665697 0.15094446 0.2762179 -0.31052342
0000c0 b2 f5 21 3e 3d 26 6e 3e cb 11 3d 3e 26 b7 43 3e
       0.15816382 0.23256774 0.18463819 0.19112834
0000d0 95 03 85 3e 66 2f 1e 3e ad 07 39 3a 67 5f 95 3e
       0.25979295 0.15447769 0.0007058334 0.2917435
0000e0 08 b9 84 be df 5d c3 bd d0 e7 a0 3d 3d 24 75 3d
       -0.25922418 -0.09539389 0.07856715 0.059849013
0000f0 c8 70 8e 3e d6 c2 aa 3d 7a 0e 03 3f cd de ee be
       0.2782042 0.08337943 0.51193964 -0.46654359
000100 da 38 07 be 08 ba a7 bc 58 77 d3 3c bc 53 3c 3d
       -0.13205281 -0.020474449 0.025813743 0.045978293
000110 0e 2c ba 3d c1 0e 90 bd 90 55 5a bd 63 77 17 3e
       0.09090434 -0.07034064 -0.053304255 0.14791636
000120 bc 54 42 bd ae 7c fb bd 02 7a f5 3d 0e 28 f5 3d
       -0.04744409 -0.1227964 0.11986162 0.119705305
000130 f4 0b 63 bd f0 c1 10 bd 0f 92 05 be 09 2b 17 be
       -0.05543132 -0.035341203 -0.13043998 -0.1476251
000140 fc 24 88 3d 05 a9 9a bd d3 1b 10 3e cf f1 10 be
       0.06647679 -0.07551769 0.14073114 -0.14154743
000150 d8 2b c8 bc 40 25 7a 3b 9a 11 ba 3d 27 81 12 3e
       -0.024434969 0.0038169175 0.090853885 0.1430708
000160 9a 2c f5 3d 36 5e 9f 3d 6b 2c a6 bd 48 46 01 be
       0.11971398 0.07781641 -0.08113941 -0.12624466
000170 35 f1 21 be a0 ab 0f 3c 2b 91 2f 3e 74 88 09 bd
       -0.1581467 0.008768946 0.17145221 -0.033577397
000180 72 fc 01 bd b0 8b 03 be 3b 73 f2 3c 71 05 b3 3d
       -0.03173489 -0.12846255 0.029595962 0.08741272
000190 47 78 32 be 4a ba 18 be f4 a2 d9 3d 1f c0 8c 3c
       -0.17428695 -0.14914814 0.10626784 0.017181454
0001a0 d0 92 34 bc 04 0f e3 3b 28 49 12 bd 66 0d fd bd
       -0.011021331 0.0069292802 -0.0357143 -0.12356071
0001b0 d8 69 42 be 57 aa bb 3d 6f 2e 3b bd 49 4a 98 bd
       -0.18985689 0.09163349 -0.04569858 -0.07436044
0001c0 a0 fd 8f bd b4 8f d7 bd 6d 22 9d bd bd 63 1b be
       -0.07030797 -0.10525456 -0.07672582 -0.15174766
0001d0 d2 65 dc 3d 07 d3 81 3d 78 95 b6 bd 30 fa ad bd
       0.10761608 0.063390784 -0.08915228 -0.08494985
0001e0 58 d6 5f 3d 9c 10 86 bd 83 17 fc 3c c3 bf c4 3c
       0.054647774 -0.06546137 0.03077293 0.02401722
0001f0 96 36 0b be e8 61 35 3d 75 c7 a2 bb 0a 11 15 3e
       -0.13595042 0.044282824 -0.004967625 0.14557281
000200 f4 37 8d bd 34 23 3a bd 5b c7 9a 3e 2c 6a 7b be
       -0.06895438 -0.04544373 0.3023022 -0.2455222
000210 d4 f4 3f be 19 cd c6 3e ee 94 31 be 82 a1 4c 3e
       -0.18745738 0.38828352 -0.17341968 0.19983485
000220 2f 06 0e 3e 7d dd 84 3e 9e 05 62 bd a8 db 17 3e
       0.13869546 0.25950232 -0.05518114 0.14829886
000230 75 d1 f5 bc 4f 4a 6d bc 44 79 9d 3d 4b 7a 7e 3e
       -0.030007103 -0.014483049 0.07689145 0.24851339
000240 34 e7 3b 3e 61 30 5d bd 8b 39 88 be 42 04 a8 3d
       0.18349916 -0.054001216 -0.26606402 0.08203937
000250 2d 7f 71 3d 60 47 a3 3e 86 31 4c 3d 2a 7c 2c be
       0.058959175 0.31890392 0.049851917 -0.1684424
000260 82 4b 64 3e 97 e2 10 3e 71 e1 26 be f1 5a 2e 3e
       0.22294429 0.14148937 -0.16296937 0.17026879
000270 4b 81 26 be c0 88 fa bc 94 4f 88 bf f9 20 6f 3f
       -0.16260259 -0.030582786 -1.0649285 0.9340969
000280 fe 21 35 bd 4c 29 64 3d b7 87 aa bd cf 5e 9c 3b
       -0.04422187 0.055703446 -0.08326667 0.0047720443
000290 98 a5 25 3e 47 e2 2a be db 76 55 bd 70 fe e2 bd
       0.1617645 -0.1668788 -0.052115303 -0.11083686
0002a0 eb d4 1e 3e a0 63 c4 3d 3b 20 43 bd 22 fd 7a bd
       0.1551091 0.095893145 -0.04763816 -0.061276563
0002b0 63 0d 1f be 4f 68 a2 3d 23 e8 5c bd e9 0e 12 3e
       -0.1553245 0.079300515 -0.05393232 0.142635
0002c0 f4 27 6f 3d 43 b8 e1 3d b2 e0 c4 3d 2a 67 01 be
       0.05838771 0.11021473 0.0961317 -0.1263701
0002d0 08 ec 35 3b e2 04 da bd fe 78 9c 3d 94 d3 66 bd
       0.0027759094 -0.106454626 0.07640265 -0.05635412
0002e0 31 eb f2 38 9e 63 fa bd 68 39 4e be 8f 87 cb 3c
       0.00011583267 -0.12226032 -0.20139086 0.024844913
0002f0 20 ed c9 ba e0 94 7b 3c ef eb d0 3d 80 f7 b7 bd
       -0.0015405752 0.015355319 0.10201251 -0.08982754
000300 4c 84 80 3d a1 65 c7 bd 5c 07 16 3d 48 4e 25 bd
       0.062752336 -0.09736181 0.036628112 -0.040357858
000310 9a 8b fd 3d 59 4c 1e 3e 37 38 1d 3e d0 49 02 3c
       0.123801425 0.15458812 0.15353476 0.007952169
000320 de 7d d5 3d 05 dd 34 be ab 5e d4 bd d0 68 01 3d
       0.10424398 -0.17662437 -0.10369619 0.031594098
000330 80 38 81 3a 06 1d 0e be 15 3e a0 bd 77 17 a9 bd
       0.0009858757 -0.13878259 -0.07824341 -0.08256429
000340 db 58 33 be 90 1c 8a 3c b2 cc f6 3d 30 f0 92 3d
       -0.17514364 0.016859323 0.12050761 0.071747184
000350 39 04 ac bd 48 39 26 be d0 0a 12 be 80 e5 56 3b
       -0.08399243 -0.16232789 -0.14261937 0.0032790601
000360 1e 0d f9 3d a0 9d 92 bd 64 00 c5 bd c2 21 c1 bd
       0.12160705 -0.07158971 -0.09619215 -0.09430267
000370 d0 ba 7a bc e6 e7 2b be 51 bd 1f be 99 31 32 3e
       -0.015303329 -0.16787681 -0.15599562 0.17401733
000380 ca 53 98 3d e4 98 02 bd c8 0b 78 3d c7 cf ed 3b
       0.074378565 -0.03188409 0.06055811 0.007257435
000390 64 0b 9b 3d df a9 22 3e cc 0d a0 3d a3 68 0c 3e
       0.07570532 0.15885113 0.078151315 0.1371179
0003a0 82 c5 8d 3c 94 eb 27 bd 5a a4 8e 3e fe 05 1e 3e
       0.017306093 -0.04099615 0.27859765 0.15431973
0003b0 10 07 80 3e b3 b2 9d 3d 94 6c 63 3e 3c 73 b0 be
       0.25005388 0.077001 0.22209388 -0.34462917
0003c0 47 9a 7b 3d 42 3e 00 3e b6 aa 9d 3d 07 ae b3 3d
       0.061426427 0.1252375 0.07698576 0.087734275
0003d0 24 94 0c 3d 13 de 90 bc 6d a6 e5 bc 0b 21 4e bc
       0.034320965 -0.017684018 -0.02803346 -0.01258112
0003e0 6c c7 fd bd da 68 19 be db 53 60 3e 5d a8 53 3e
       -0.12391552 -0.14981404 0.21906988 0.20669694
0003f0 b1 1e 92 3e ae 25 73 bd 68 15 d0 3e bc 9d 1b bf
       0.2853904 -0.059362106 0.40641332 -0.6078756

value_stream.0.bias f4 [32]
000000 a8 ec 05 3e d8 92 77 bc 38 36 1e be 33 e6 15 be
       0.13078558 -0.015110694 -0.1545037 -0.14638595
000010 9b 9c fb bd 98 68 88 3d 10 5f 95 bd db 6a 02 3e
       -0.122857295 0.06660575 -0.07293522 0.12736075
000020 84 f2 ec 3d 32 43 ac ba d6 e1 48 3d e7 9d 1f 3e
       0.11569694 -0.0013142584 0.0490435 0.15587579
000030 68 52 86 3e 83 fb e2 3d f7 5d 12 bd 9b 00 02 3e
       0.26234746 0.11083128 -0.035734143 0.12695543
000040 77 c5 70 3d ee d8 70 bd a5 d9 c9 3d 4e 9e 8f 3e
       0.058782067 -0.05880063 0.098559655 0.28050464
000050 81 bf fc 3d f8 48 04 be cf 55 8a 3e 58 5c f0 3c
       0.12341214 -0.1291846 0.27018592 0.029340908
000060 91 15 6e 3e 44 85 2a be 91 df 17 3e 69 01 a4 3d
       0.23250414 -0.166524 0.14831378 0.080080815
000070 8e 0f 23 3d aa c6 71 bd 03 95 fb 3d 7f 2c 48 3e
       0.039809756 -0.05902735 0.12284281 0.19548224

value_stream.2.weight f4 [1, 32]
000000 d0 42 6d 3e 79 36 4d 3e 80 b4 7f 3b 61 a4 9f 3d
       0.23170018 0.20040311 0.0039017498 0.07795025
000010 0e ee 5d bf 83 39 96 bd 68 3e 8a 3d dc 8b 5a 3e
       -0.8669137 -0.07335188 0.06750184 0.21342415
000020 b2 4a 56 3e 85 b1 08 3e dc 16 8a 3e f1 77 14 3a
       0.20926932 0.13348968 0.26970565 0.00056636246
000030 54 0b 38 3e fe 7c ee bd cf 1b 3c be bd 54 77 3e
       0.17973071 -0.11644934 -0.18369983 0.24153419
000040 9f a6 92 be 40 a5 73 bc dc a7 6c 3e 49 d6 29 3e
       -0.28642747 -0.014870942 0.23110908 0.1658565
000050 11 fa 84 3e 27 e6 04 3c c9 56 33 3e 28 a0 81 bc
       0.25972036 0.008111513 0.17513575 -0.015823439
000060 53 7d 4c 3e bc fb e9 3d 37 e0 91 3e 3c a5 14 be
       0.19969682 0.11424968 0.28491375 -0.14516157
000070 67 f4 99 bf 15 1c 75 bf bc 37 66 bd 6c 0a 7e 3e
       -1.2027711 -0.95745975 -0.056205496 0.24808663

advantage_stream.0.weight f4 [32, 32]
000000 55 32 22 be f2 a0 d1 3d 19 cc d5 bd 07 4d 04 3e
       -0.15839513 0.10235776 -0.10439319 0.12920009
000010 58 9d 61 3d 60 c1 35 3d d5 cd 0f 3e 66 ad 27 be
       0.055081695 0.04437387 0.14043362 -0.1637474
000020 41 8f 04 3e 0c d1 6a 3d 08 9b f2 bd 3c 2d 30 3d
       0.12945272 0.05732827 -0.11845976 0.04301189
000030 cc cc 49 bd 9e 51 91 bd 10 d7 9c bc 45 b0 aa bd
       -0.049267575 -0.07095645 -0.019145519 -0.08334402
000040 3b 4a 1e 3e c1 cd 1b 3e 58 7c 9a bc 13 86 20 be
       0.15458004 0.15215208 -0.01885812 -0.15676145
000050 e0 2e 31 bc 40 5c 3f 3c 86 fe f1 3d 60 5f ba 3b
       -0.0108143985 0.011679709 0.118161246 0.005687639
000060 64 bd 52 3d 8c 1f 40 3d da 6b cd bd 59 91 e0 bd
       0.05145015 0.046905085 -0.10030337 -0.10965223
000070 28 ca 21 be 00 f4 b5 ba a0 44 60 3d 00 f1 4d bc
       -0.15799773 -0.0013881922 0.054752946 -0.012569666
000080 ec 6e 17 3e 78 20 0a bd 70 69 0a be 54 f1 93 3c
       0.14788407 -0.03372237 -0.13516784 0.01805941
000090 1a 3e 6b bd 1e 47 70 bd 65 8f 23 3e c1 5d 95 bc
       -0.05743227 -0.058661573 0.1597267 -0.018233182
0000a0 c1 20 1e 3e 05 99 04 3d 06 e0 8c bd 4d b7 04 3e
       0.15442182 0.032372493 -0.068786666 0.12960549
0000b0 df 9c eb bd 0c e2 9b 3b e4 44 dc 3c bd bb 98 3d
       -0.1150453 0.0047571715 0.026888318 0.07457683
0000c0 2c 80 32 be ff 77 4c 3b a5 dc 88 bd 0a c2 db 3d
       -0.17431706 0.0031199453 -0.066827096 0.107303694
0000d0 3e f6 17 3d 33 24 97 3d a1 de c0 3d bd 92 4e bd
       0.03710007 0.07379951 0.09417463 -0.05043291
0000e0 80 1a b4 bc 31 39 11 3e 82 42 20 be 79 51 0f be
       -0.021985292 0.14181973 -0.1565037 -0.13995923
0000f0 99 4c e8 ba db 69 8f bd e8 77 f1 bc 00 99 1d 3e
       -0.0017723023 -0.07002612 -0.029476121 0.15390396
000100 72 bb d1 3d e5 57 1a be fe ae e1 3d bd 51 60 3e
       0.102408305 -0.15072592 0.11019705 0.2190618
000110 00 c6 37 be c7 05 0c 3e 38 fe b6 3c 29 c2 76 3b
       -0.17946625 0.13674079 0.022338018 0.003765235
000120 cd e0 31 be e4 e9 7e 3e 52 d8 35 3e e2 89 0f 3e
       -0.17370911 0.2489391 0.17758301 0.14017442
000130 14 98 0f 3e 9c 58 dd 3c 7e 74 56 3d 1d 31 87 3e
       0.14022857 0.027019791 0.05235719 0.26404658
000140 f4 4d 0a 3e 85 1d 37 3c 19 bc 70 be 07 33 c6 bd
       0.135063 0.011176472 -0.23509254 -0.096777014
000150 5d 2f fc 3d 53 02 5f 3e 5e 7b da bd 50 a1 17 be
       0.12313721 0.2177823 -0.10668062 -0.1480763
000160 8b 51 d9 3e 08 95 11 bd 93 13 e9 bd 11 12 86 3e
       0.42445025 -0.035542518 -0.113806866 0.2618566
000170 df 73 46 3e aa 8c d8 bd d3 14 15 bf 91 94 32 3f
       0.19380139 -0.105737045 -0.582349 0.69757944
000180 00 7d 41 3a f9 bc d9 bd 7e 55 d0 3d 18 d3 16 bd
       0.0007380992 -0.10631747 0.10172556 -0.03682241
000190 f0 67 46 3c 1e 99 bc bd 8a 52 19 be 27 70 f0 bd
       0.012109742 -0.09208892 -0.14972892 -0.11740141
0001a0 00 03 9f bc 6c 0c 03 be 0d 6a 32 3e 00 c7 fa 3a
       -0.01941061 -0.12797707 0.17423268 0.0019132793
0001b0 94 99 8a bd c2 15 8f 3d 70 7c 20 be 10 2e b9 bd
       -0.06767574 0.06986572 -0.15672469 -0.09041989
0001c0 6c fb 87 3d 2d ce 19 be ee 70 b4 3d 20 73 73 3c
       0.06639752 -0.15020056 0.08810602 0.014858991
0001d0 6b ef 16 be 40 a6 33 be 58 d8 64 3d ca 1f ab 3d
       -0.14739768 -0.17543888 0.055870384 0.08355673
0001e0 68 bf 10 bd 3c 11 20 be e1 a8 d0 bd 30 ea 99 3c
       -0.03533879 -0.15631574 -0.10188461 0.018788427
0001f0 c0 bd d2 3b dc 58 39 3d 10 08 00 3d 60 d0 17 bc
       0.0064313114 0.04525076 0.03125769 -0.009265989
000200 ab b5 bc 3d 5b 97 2f 3e 28 aa 19 3e b7 88 31 3e
       0.09214338 0.17147581 0.15006316 0.17337309
000210 8b c0 b4 bd b0 7c 75 bd 07 46 ae 3c 78 24 cd 3d
       -0.08825787 -0.059933364 0.021273626 0.100167215
000220 a8 8b 92 3d a1 f3 16 bc 36 b6 05 be 40 94 08 be
       0.071555436 -0.009213359 -0.13057789 -0.13337803
000230 f2 a0 4f 3e 6b aa 17 bd 7f 70 01 bc 36 6b ca bd
       0.2027624 -0.037027758 -0.007900356 -0.0988373
000240 15 d8 aa bd d5 bd 91 3c ff 9e e3 3d 55 1f 8f bd
       -0.083419956 0.017790714 0.111143105 -0.06988398
000250 99 e8 6c bd 2b 9f 0f 3e b9 74 ba bd e1 f4 07 be
       -0.05783901 0.14025562 -0.09104294 -0.13277008
000260 c4 d7 26 bc 75 3f 2c 3e ec e5 1d 3d 45 19 10 3d
       -0.0101832785 0.16821082 0.03854935 0.03518035
000270 c4 76 9f bc e2 3b e2 3d 07 46 6e bc 91 ca 32 3e
       -0.019465812 0.11046578 -0.014543063 0.17460085
000280 18 0f 2b 3d a8 02 a1 3c b8 5c c7 3c 43 47 df bd
       0.04176244 0.019654587 0.024336204 -0.10902264
000290 bd 71 06 3e 42 25 be 3d 11 94 0d be 35 8b 28 be
       0.13129325 0.0928445 -0.13826014 -0.16459353
0002a0 0c 66 3a bd 6a 85 f0 3d 3b 3e b2 bd 81 c6 27 3e
       -0.045507476 0.11744197 -0.08703276 0.16384317
0002b0 37 06 b6 bd e4 83 23 be 9e 41 9f 3d c0 cb da bd
       -0.08887904 -0.15968281 0.07776187 -0.106833935
0002c0 e0 48 e4 bc b4 d7 61 bd 70 23 66 bc 41 bc 1d be
       -0.02786678 -0.05513735 -0.014046535 -0.15403844
0002d0 fa 07 26 be ce a1 9b 3d 28 19 a4 bc 8c 64 da bd
       -0.1621398 0.07599221 -0.020031527 -0.10663709
0002e0 a0 90 93 bb e4 38 25 be 68 33 40 3d ea ee ab 3d
       -0.0045033246 -0.16134983 0.046924025 0.083951786
0002f0 39 8e 2f 3e b9 78 13 be 60 99 af bc fe 79 c4 3d
       0.17144097 -0.14401521 -0.02143544 0.09593581
000300 2d ea 42 3e 4a ca 00 be c8 b8 25 3e b1 05 26 3e
       0.19034643 -0.12577167 0.1618377 0.16213109
000310 a0 1d 46 3e 66 19 0e bd 72 37 a7 3d 77 8a f3 bd
       0.19347239 -0.03469219 0.08164872 -0.118916444
000320 3a da de bd 56 11 48 3d ad da 41 3e f4 bf ef bd
       -0.10881467 0.048844658 0.18931074 -0.11706534
000330 5e 16 b0 3d c0 e6 64 bd a5 8b a2 3d 7a b5 9f be
       0.08598016 -0.055884123 0.07936791 -0.31193143
000340 0a 3f bc 3d a0 e0 42 be de b1 10 be 7c b6 0f 3d
       0.09191711 -0.19031 -0.14130351 0.03508614
000350 59 f5 21 be 44 5a 4f 3e 4d 67 c2 bd 63 93 e7 bd
       -0.15816249 0.20249277 -0.09492359 -0.11307409
000360 f4 f7 a5 3e 1c b0 11 be 86 56 aa bd 76 9d 56 3e
       0.32415736 -0.14227337 -0.08317284 0.20958504
000370 95 18 47 be 9a 26 f9 3d 8c 59 c2 be e2 78 ec be
       -0.19442971 0.12165566 -0.37958944 -0.46185976
000380 2c a4 14 3d 92 db 8e 3d bf 4d e2 bd 23 b7 ca 3c
       0.03628938 0.069754735 -0.11049985 0.02474553
000390 a6 e3 9b 3d e3 e7 19 3e 67 33 09 be 05 36 b6 bd
       0.0761178 0.15029864 -0.13398515 -0.08897022
0003a0 7c ef 52 3d 60 f5 b9 bb 42 50 f4 bd e5 5a 18 be
       0.05149792 -0.005675003 -0.119293705 -0.14878424
0003b0 0f c9 21 be fd 55 fd bd 63 0f 9c bd 43 66 fb bd
       -0.15799354 -0.123699166 -0.07620122 -0.12275364
0003c0 f0 e7 1f be 62 8a 4f 3c 2c 1e d2 3d 4e b2 aa bd
       -0.15615821 0.01266727 0.10259661 -0.0833479
0003d0 9c ef 83 3c ac 06 1f bb 9e f2 a6 3d 0c 3c fc bd
       0.016105466 -0.0024265451 0.08151744 -0.123161405
0003e0 c0 81 09 3c 69 f6 28 3e 83 fb fc 3d fa 74 35 be
       0.008392751 0.16500248 0.123526596 -0.17720404
0003f0 c1 32 e1 bc 00 fd d7 3a 6a 16 6f bd b6 da ed bd
       -0.027490022 0.0016478598 -0.058370985 -0.116139814

advantage_stream.0.bias f4 [32]
000000 9a 77 00 be f2 23 95 3d 8d 3e 09 3e 20 8f ea 3b
       -0.12545624 0.07282247 0.13402767 0.007158175
000010 b9 67 37 be fc de 31 be 7d 4b 4b bd bd 98 c1 3d
       -0.17910661 -0.17370218 -0.049632538 0.09452961
000020 45 5a 26 be d8 60 f0 3c 3f 7d df bd 43 4a 06 3e
       -0.16245373 0.029343054 -0.10912561 0.13114266
000030 49 15 7d bd a8 e5 16 bd 59 d1 40 be 30 36 90 be
       -0.061787877 -0.03684011 -0.1882986 -0.28166342
000040 77 f0 fa 3d 31 11 1d 3d ac ac 02 3e 5f 34 2e be
       0.12252896 0.038346473 0.12761182 -0.17012165
000050 9e 73 32 3e f3 8d 29 bd b9 2a 32 3e ec a0 92 bd
       0.17426917 -0.04139514 0.1739911 -0.071596
000060 7a cf 83 3c 68 a7 91 3d b6 88 86 3e b8 a8 9b bd
       0.016090143 0.07112008 0.26276177 -0.0760054
000070 58 5b 20 3c bb b4 12 bd 63 c0 65 3d 1a 2c a5 bd
       0.009787403 -0.03581689 0.056091677 -0.08065052

advantage_stream.2.weight f4 [2, 32]
000000 f3 d6 0f be 32 b9 0b be 95 86 82 be 8b 39 99 bd
       -0.1404684 -0.13644865 -0.25493303 -0.074816786
000010 78 e9 85 3d f8 61 1e bd d4 a3 aa be b7 18 5c 3b
       0.06538671 -0.03866765 -0.33328116 0.0033584067
000020 eb 73 3e be bb fc ce 3e 76 3e 2f be 31 d3 42 be
       -0.18598907 0.40427193 -0.1711367 -0.19025876
000030 d5 18 c9 bd 68 b0 b2 3c 6a 2d 3b bc b5 f6 68 be
       -0.098191895 0.021812633 -0.011424402 -0.22750361
000040 8a c3 33 3f 89 53 29 be a4 b5 7e be c1 b6 f7 3c
       0.70220244 -0.16535772 -0.24873978 0.030238511
000050 cc 79 24 3f 83 4c f3 3d 26 1c f7 3e 7a a3 82 be
       0.6424835 0.11879828 0.48263663 -0.25515348
000060 dd 29 1b bc 1b 21 eb 3d db 92 9d 3e b8 e7 1c bc
       -0.00947043 0.11480924 0.30776104 -0.00957673
000070 50 20 b4 3d d7 fd dd bd 79 8c 57 3d c9 4f a6 be
       0.087952256 -0.10839432 0.0526242 -0.32482746
000080 e0 36 26 3d 3e c4 ef 3d 78 74 02 be 98 14 e7 3c
       0.040579677 0.11707352 -0.12739742 0.028208062
000090 13 c9 11 3d c0 1a 77 bb 6b f3 28 3f 72 bb c3 3c
       0.03559215 -0.0037705153 0.65996426 0.023893092
0000a0 71 4d a3 be ad 3e 0c bf 13 c3 22 be a9 be d2 bd
       -0.3189502 -0.54783136 -0.15894727 -0.10290272
0000b0 37 9f db 3d 48 0e bf bc f1 71 f6 3d d7 2b 5b be
       0.10723727 -0.02332224 0.12033451 -0.21403442
0000c0 40 81 9b 3d 61 c5 55 3f e4 af b6 3e 53 75 78 ba
       0.07593012 0.835043 0.3568107 -0.0009477932
0000d0 9b 7a c5 3e 01 42 b8 bd 5a 3f cf 3d 6a cc c3 bd
       0.38570103 -0.08996964 0.10119505 -0.09560473
0000e0 86 f2 98 be 9b 44 2c be 81 09 e8 3e ab 54 2f bf
       -0.2987253 -0.16823046 0.4531975 -0.6848857
0000f0 f3 ea 8e be d2 e9 99 3d f1 96 89 be 78 d7 19 3d
       -0.27913627 0.07515301 -0.26872972 0.037559003

advantage_stream.2.bias f4 [2]
000000 31 97 1f bd 7a 4b 09 bd
       -0.038962547 -0.033519246
