Examples/pendulum_continuious_dense_reward/checkpoint.pth (torch_old, 16786 bytes, 11 tensors)

feature_layer.0.weight f4 [32, 8]
000000 cf 54 d8 be 77 4c 91 bf 60 ad 83 bf 17 aa 00 bf
       -0.42252204 -1.135146 -1.0287285 -0.50259537
000010 c8 c7 c3 3e f8 60 3f bc 46 f1 2b 3e 77 58 d1 3d
       0.38238358 -0.011680834 0.16791257 0.102219515
000020 06 f4 43 3f 1b 74 51 3f ef dd 90 3e 71 81 aa be
       0.76544225 0.8181779 0.28294322 -0.3330188
000030 85 7f b6 bf f4 9d 0b 3e 45 52 49 be f4 63 64 3e
       -1.4257666 0.13634473 -0.1966029 0.22303754
000040 19 25 18 3e fd 39 16 3e 45 34 de 3d d4 91 23 3f
       0.14857902 0.14670558 0.10849813 0.6389439
000050 3f f2 e7 be b0 cd 9f 3e 93 16 c3 3d 88 0c 31 3f
       -0.45302007 0.31211615 0.0952579 0.69159746
000060 23 36 6f bd 86 5d 5c be d7 2c 32 3f 64 d1 12 bf
       -0.05840124 -0.21520051 0.6959967 -0.57350755
000070 66 29 28 bf 2f 52 dd be 19 64 4d be b0 99 da 3e
       -0.6568817 -0.43226764 -0.20057715 0.4269538
000080 d8 ff bc be 57 e1 ae be 6c 17 2b bf 49 9a 57 bf
       -0.36913943 -0.34156296 -0.66832614 -0.84219795
000090 58 7f a3 3e f3 1f 6a 3f 09 b4 05 3f bf 87 96 3e
       0.31933093 0.91455 0.52227837 0.2940044
0000a0 73 72 1c 3f 0e c5 09 bf 8e 9d 15 be 34 cd 12 bf
       0.61112136 -0.53816307 -0.14610884 -0.57344365
0000b0 50 28 89 bf 9b 4f fe be 95 e1 9b 3e b7 6a 41 be
       -1.0715427 -0.4967011 0.30445543 -0.18888365
0000c0 52 ac 77 bd 1f 87 9b 3d 08 21 90 be 35 62 4e 3f
       -0.06046707 0.07594132 -0.281502 0.806186
0000d0 1e e5 7e 3e 8c bf e7 3e 02 7a c3 3e a7 90 33 bf
       0.24892089 0.45263326 0.38179022 -0.70142597
0000e0 90 39 90 3e 2b dd 81 bf fe 52 ad be 1e e8 2c 3e
       0.28168917 -1.014562 -0.3385238 0.1688542
0000f0 33 47 57 3f ba 12 d8 3e db 08 89 3e 8a 47 e6 3d
       0.84093016 0.42201787 0.2676457 0.11244114
000100 91 ea 7c 3e 5c 6a a0 bd e6 6d cc 3e 8e ec b6 3d
       0.24698855 -0.078327864 0.39927596 0.08931838
000110 7d 7b 2e 3f ea 57 3f 3f 6b 07 37 be 4b f1 f8 bd
       0.6815718 0.7474352 -0.17873923 -0.12155398
000120 96 f1 17 3e 69 db 04 3f 6f 96 db 3e 38 1e d4 3e
       0.14838251 0.51897293 0.4288821 0.41429305
000130 3b e5 fd be bf eb 47 bf ec de ab be 7f 00 82 3e
       -0.4958895 -0.78094095 -0.33568513 0.25391003
000140 84 ba 1c bf 5d 41 f3 3e 97 0c 58 3f 48 cc a0 be
       -0.612221 0.47510806 0.8439421 -0.31405854
000150 6f dc c2 be 4b 10 f3 3e 07 8d d9 3d 03 d0 2a bf
       -0.38058802 0.47473368 0.10622602 -0.6672365
000160 d0 9b 92 3f 4d 96 25 be b8 37 5b 3f fd 9f 61 bd
       1.14538 -0.16170616 0.85631895 -0.055084217
000170 99 87 04 bf 91 7f 0d be b6 1d 78 bd cf ef 7c bd
       -0.51769406 -0.13818194 -0.06057521 -0.061752137
000180 f5 f4 b9 3e 84 63 9b 3e 49 db 72 bd 9c 35 48 bf
       0.363197 0.30349362 -0.059291158 -0.782068
000190 84 80 b1 3f 1b 28 f3 3d d3 11 8f 3d 29 0e a2 bc
       1.3867345 0.11872884 0.069858216 -0.019782143
0001a0 3a 1e 7b 3d 4c f9 ee bd 3c 04 e5 3e fd ba 44 bf
       0.061308123 -0.11668643 0.44729793 -0.7684782
0001b0 f4 5f aa 3f 3d 26 9e be b4 8d 12 3e 31 f2 95 3e
       1.3310533 -0.30888548 0.14311868 0.2928634
0001c0 d3 60 17 be 66 9e 4e 3f 81 7b a0 3f a1 a2 81 bf
       -0.1478303 0.80710447 1.253769 -1.0127755
0001d0 67 c0 c9 bf 7d 5a d2 3c 71 89 e1 3d 7f a3 5b be
       -1.5761842 0.025677914 0.11012543 -0.21449088
0001e0 0c 03 51 be cb 16 d8 3c 1e e0 9f bd 0c e3 9a be
       -0.20411319 0.026378056 -0.07806419 -0.30251348
0001f0 7d af d7 3e aa 36 39 bf b9 1c 8a bf 5f ae 26 3e
       0.42126074 -0.72349036 -1.0790015 0.16277455
000200 ae 67 14 3e f3 e3 89 bf 71 03 95 bf 39 f3 97 be
       0.14492676 -1.077269 -1.1641675 -0.29677752
000210 22 bd de be 7c c3 fe bd b4 07 a6 3e 3e a7 8b be
       -0.43503672 -0.124396294 0.32427752 -0.27276033
000220 86 bc 9c be 31 a8 c4 3b df 11 5a 3e 63 91 08 3e
       -0.30612582 0.0060014953 0.2129588 0.1333671
000230 f0 3f 91 3d 34 cf 97 3e 60 f8 16 3f 55 25 72 be
       0.07092273 0.2965027 0.5897274 -0.23647054
000240 fb 40 2c bf 6a 12 20 be e0 a1 03 bf f6 b5 59 3e
       -0.6728665 -0.15632024 -0.51418877 0.21260819
000250 89 54 91 3f 5a 2c de 3e 1a d1 48 bf 35 42 8f be
       1.1353923 0.43393213 -0.78444064 -0.279802
000260 48 2f ff bd af 68 3b 3e 90 8c d2 3e 14 f3 a1 be
       -0.1246019 0.18301652 0.41122866 -0.31630766
000270 59 80 4d 3f 41 96 bd bc 8f 6c c8 be 33 c2 5d be
       0.8027397 -0.023142936 -0.39145324 -0.21656112
000280 04 1b 36 be db 8d 04 3e 6b c4 82 bf 55 86 b7 bf
       -0.17783743 0.12944739 -1.0216192 -1.433787
000290 7f b3 dd 3d f8 00 46 be b8 85 9b be 32 c0 98 3c
       0.10825252 -0.19336307 -0.30375457 0.018646333
0002a0 05 ec 3a bf 7a eb 3f bf 62 7c 0e bf f4 90 2a be
       -0.7301639 -0.74968684 -0.55658543 -0.16656858
0002b0 fe 43 29 3f d6 57 9e 3d ca 0d 8e bd 03 3e 2a 3e
       0.6611937 0.07731597 -0.06936224 0.16625218
0002c0 d9 b2 52 bd 11 37 87 bf b0 65 df 3e a2 8f ac bf
       -0.051440094 -1.056368 0.4363227 -1.3481333
0002d0 74 17 e3 be f9 d6 0b bf 99 20 ad 3e 2a b3 cb bc
       -0.4435383 -0.546249 0.33813933 -0.024865706
0002e0 4b 60 bb 3e f8 0d 31 c0 c2 91 80 be 50 9f 95 bf
       0.36596903 -2.7664776 -0.25111204 -1.1689243
0002f0 0a 14 a9 3e f8 df 06 bf 7c 2c 4b 3d 66 3a 9f be
       0.330231 -0.526855 0.04960297 -0.31099242
000300 d4 74 15 3e 91 4e b4 3b 73 1b 97 bf e4 37 b2 bd
       0.14595348 0.00550253 -1.1805252 -0.087020665
000310 32 25 49 be 55 c6 58 3d 9c 85 69 be d7 87 db bd
       -0.19643095 0.05292352 -0.22804874 -0.10719269
000320 18 a3 0b 3f ea cc 33 bf 5f 16 ef be 8e a9 c4 3c
       0.54545736 -0.7023455 -0.46696755 0.024006631
000330 78 03 6e bf 18 d1 17 3e 36 46 05 3e ce 73 71 3c
       -0.9297404 0.14825857 0.13015065 0.014737083
000340 6c 28 bc bd e4 9d cc bf 74 35 d5 bd 9d 7d a5 bf
       -0.09187397 -1.5985684 -0.10410586 -1.2928959
000350 e2 18 c1 be 97 4d e0 3d 8d 0c 18 be e7 af 34 3e
       -0.37714297 0.10952299 -0.14848538 0.17645226
000360 22 fe 66 3e e6 93 0f c0 72 77 49 be 97 15 a4 bf
       0.22557881 -2.243402 -0.19674471 -1.2819089
000370 b6 69 3c be 18 75 1a 3d 8f bb 89 3d 5a 55 cc 3d
       -0.183997 0.037709326 0.06725227 0.09977217
000380 10 88 32 bf d7 bc a6 3e 49 53 c4 be d2 12 00 bf
       -0.69738865 0.32565948 -0.38344792 -0.5002872
000390 40 53 15 3f 30 bf 98 3d fc 76 05 be c5 f8 a1 3e
       0.58330154 0.07458341 -0.1303367 0.3163511
0003a0 d1 42 ca 3e 58 a4 5d 3e ab d8 3c 3f 74 3d e6 bd
       0.39504102 0.21644723 0.7376811 -0.1124219
0003b0 53 f2 af be cb f7 a0 bb 6e 86 6d be bb d9 85 3e
       -0.34364566 -0.0049123517 -0.23195812 0.26142678
0003c0 45 aa a5 3e 5b df 38 3f 75 37 7c 3d 88 8c cb 3e
       0.32356468 0.72215813 0.061576325 0.39755654
0003d0 c0 a7 31 3f 7a 0a 81 bf ac 5c bd bd a3 f5 7e bd
       0.6939659 -1.0081322 -0.092461914 -0.062245976
0003e0 69 39 9c 3e e5 25 c4 3d e7 06 66 3e 4b cf 8a 3f
       0.3051255 0.0957754 0.2246357 1.0844511
0003f0 1e 3c 54 3f 16 e9 4c 3e c3 37 61 3e 29 fc 19 3d
       0.8290423 0.2001079 0.21993928 0.037593994

feature_layer.0.bias f4 [32]
000000 90 1a ab be b6 0c d6 3e bb b8 62 bd 56 0d 71 be
       -0.33418703 0.41806573 -0.055351954 -0.23540244
000010 6e 72 fd be 7b 50 96 3e d1 4b 04 3f 2f db ed 3e
       -0.49501365 0.29358277 0.51678187 0.46456286
000020 69 2c e4 3d 77 7c 3c 3d cb 97 22 3d 7f b1 5a 3d
       0.11141283 0.046017136 0.039695542 0.05339193
000030 16 71 07 3f ec 98 8c 3d 0e e1 93 3e 1f 7b 53 3e
       0.5290693 0.06865105 0.2888264 0.20652436
000040 32 95 2d bd 7d a1 26 3e b8 06 31 3d f3 e9 ce be
       -0.042378612 0.1627254 0.043219298 -0.40412864
000050 4d f6 4b 3e b6 a1 07 bf 52 d9 b4 bd 2c a2 35 3e
       0.19918175 -0.52981126 -0.08830513 0.17737645
000060 7a c0 18 bd 22 d0 d9 3e 5b c2 94 3e 7b 3b 83 3e
       -0.037292935 0.42541605 0.2905453 0.25631317
000070 f6 05 a6 3d 40 27 34 3f 5e 3b 82 be 55 9f 10 bd
       0.08106606 0.7037239 -0.2543592 -0.0353082

feature_layer.2.weight f4 [32, 32]
000000 48 94 25 bd b6 82 0d bd 5f 7f dc bd cd bd 16 3d
       -0.040424615 -0.034548484 -0.107664816 0.036802102
000010 b8 ed 64 3d e0 e9 e7 bc b8 d8 22 bd 6f 8a f3 bd
       0.05589077 -0.028309762 -0.03975746 -0.118916385
000020 ae 5d fa 3d 07 86 1d be 1b f7 3f 3d 3a 79 73 bd
       0.12224899 -0.15383159 0.046866518 -0.059441783
000030 ec 67 c4 bd ec 6d 22 3c a0 c2 d7 bd d4 b5 eb 3c
       -0.09590134 0.009913903 -0.10535169 0.028773226
000040 e8 31 0e 3d aa 67 06 be ff c1 95 3b 56 f5 40 3d
       0.034715563 -0.13125482 0.0045702453 0.04710897
000050 83 9b 31 3d b8 4a b6 bc 67 72 27 be 30 c2 26 bd
       0.0433612 -0.022252426 -0.16352235 -0.040712535
000060 c9 21 47 3d 17 f3 95 bd 41 2c 69 3d 74 bf d5 3d
       0.048616204 -0.07321756 0.05692697 0.104369074
000070 59 f6 ec bd 75 7f cf bc 32 47 4a 3d 9d 64 57 3b
       -0.115704246 -0.025329331 0.049384303 0.0032866367
000080 f5 12 15 3f 9f 6b a2 3e 87 2f 1a 3b 5a 40 4d be
       0.5823205 0.31722733 0.0023526864 -0.2004408
000090 18 2a 70 3d e5 bf 2b 3f a4 a1 b8 3e 18 6a 08 3d
       0.058633894 0.6708968 0.36060822 0.033304304
0000a0 fb fb b2 3e ab 40 d3 be aa 87 ad bf 2b e8 de bd
       0.3495787 -0.41260275 -1.3557026 -0.10884126
0000b0 00 23 a7 3e c5 10 bd 3c 7d ae 36 3e b1 b2 bf 3d
       0.3264389 0.023079285 0.1784 0.093602546
0000c0 8d 2c ab 3e 1d e8 78 3e 33 6c 65 be 22 e4 27 bd
       0.33432427 0.24307294 -0.22404556 -0.04098905
0000d0 e4 23 60 3b eb 68 fc 3c 4f ea 12 3f db d2 3f 3e
       0.003420108 0.030811748 0.57388777 0.18732779
0000e0 93 ee d1 be e0 27 e0 3e f2 cb 06 be ef c8 27 bd
       -0.4100233 0.43780422 -0.13163736 -0.04096311
0000f0 69 74 6c be 3b b4 2c 3d 57 8e a3 bf 40 88 58 be
       -0.23091282 0.04216407 -1.2777814 -0.21145725
000100 ca 7f 36 3f 28 cf a6 3c 28 41 a4 3d dd 72 bd be
       0.7128874 0.020362452 0.0802024 -0.37001696
000110 38 16 16 be 56 75 46 3e 0a 44 b2 3d 6e 71 66 3e
       -0.14656913 0.19380698 0.08704384 0.22504207
000120 99 ee ba 3e b1 ce 27 3e ad 7d 1b bf 0e 12 7c be
       0.3651016 0.1638744 -0.6073864 -0.24616262
000130 f2 52 47 3f c0 5e 2a be 10 9c 6f 3e 4a 5d bc 3e
       0.7786094 -0.16637707 0.23399377 0.36789924
000140 8c 56 f0 3e f6 0f ef be eb 6b 83 be 0c 8a f9 3e
       0.4694103 -0.46691865 -0.25668272 0.48738134
000150 ce 33 ff 3e 61 9e 5e 3e 79 1f 0a 3f ed e3 ff 3e
       0.4984421 0.21740104 0.53954273 0.4997858
000160 7f 44 a8 be 8e 45 e9 3e de 69 71 be aa 15 cc 3d
       -0.32864758 0.4556088 -0.23575541 0.099650696
000170 57 b3 f8 bd 69 96 bb be 70 03 a8 3c af bb c2 3e
       -0.12143581 -0.3663819 0.020509452 0.38033816
000180 04 08 77 3f 40 f0 b6 3e 86 c6 ae 3d 2d 79 40 bc
       0.96496606 0.3573017 0.08533959 -0.011747641
000190 5b 28 f1 bd 33 e0 8a 3e 4a fa 9b 3e 45 3a 06 be
       -0.11775275 0.27124175 0.30464393 -0.13108166
0001a0 c5 45 92 3e bc c9 ed bd 38 ea 50 bf 4b 15 07 3f
       0.28568855 -0.116107434 -0.8160739 0.52766865
0001b0 bc f8 a0 3e 0e c2 0c be 19 a4 0f 3e 53 52 77 3e
       0.3143977 -0.13745901 0.14027442 0.24152498
0001c0 2a 84 12 3f dd 4a 0e bc bd ba 27 be d1 ab a9 3d
       0.57232916 -0.008684841 -0.16379829 0.082847245
0001d0 2e 85 d9 3e ff ed 8c 3e 50 0c 05 3f 15 62 f7 3d
       0.4248442 0.27525327 0.5197191 0.120792545
0001e0 8c 2f ab be 5c 9c 57 3d b9 fb 1a bf cf 94 cf be
       -0.33434713 0.05263935 -0.6054035 -0.4054322
0001f0 6b d3 a0 3e e2 66 04 be 90 e5 87 be d6 80 95 3c
       0.314113 -0.12929872 -0.2654233 0.01824991
000200 ba 27 42 bf e7 6b a8 3c 28 bb 30 3e 7d 54 a1 3e
       -0.7584187 0.020559264 0.17258894 0.31509772
000210 3d 63 61 be a4 98 05 bf cd 43 7d bf ea 95 66 3e
       -0.22010513 -0.52186036 -0.9893158 0.22518125
000220 7b bd 14 3d fe 87 12 bf c1 67 8f bf 41 65 87 3e
       0.036313515 -0.5723876 -1.1203538 0.26444438
000230 4b 3d 3d 3e ab 71 0f 3f 3f f6 9a 3e f7 a8 12 bf
       0.18480413 0.5603282 0.30265996 -0.5728907
000240 2d c2 02 bf 4e a9 2e be b5 44 f2 bf 85 c2 fb be
       -0.5107754 -0.17056772 -1.8927218 -0.49171844
000250 b7 71 a2 3e da dc e2 bf 34 a0 b8 3d 6f 39 c0 bc
       0.31727383 -1.7723649 0.09014931 -0.023464886
000260 46 ea 25 bf e5 50 f8 be 1b fe 50 3e 9d 90 79 3d
       -0.648106 -0.48499218 0.20409434 0.06092893
000270 1b c4 e3 bd 58 39 35 3e 89 3f 5c bf 53 fb 27 3f
       -0.111213885 0.17697656 -0.86034447 0.65617865
000280 b8 b0 2c bf 02 c1 d3 be 09 5d d9 3d 54 f0 57 3e
       -0.6745715 -0.4135819 0.10613448 0.21087772
000290 e6 ef 3a 3f 4e 4a e1 3e 62 2a 1f 3f 54 fa 06 3e
       0.73022306 0.44002002 0.62174046 0.1318143
0002a0 7e 69 0d be c4 f7 be 3e 54 e5 bf bc 46 d4 01 bf
       -0.13809773 0.37298405 -0.023424782 -0.5071453
0002b0 77 f0 04 bf a3 d2 9d 3e 36 c3 5b be f9 64 93 3d
       -0.5192942 0.30824766 -0.21461186 0.071969934
0002c0 a8 14 0a 3e d6 fc 24 3f c1 3c 1d 3f 62 12 5a 3f
       0.13484442 0.644483 0.6142083 0.851843
0002d0 a7 10 2b bf e2 dd af be 0d cf 35 3e e9 0a 7d 3f
       -0.66822284 -0.3434897 0.17754765 0.9884477
0002e0 9e 9b 0c 3f 5e c2 b1 3c 63 56 39 3f 02 04 df 3e
       0.54924953 0.021699127 0.7239744 0.43557745
0002f0 2e 00 f5 3c d4 7c 20 3e 3f 67 66 3e ef 6f d3 bf
       0.029907312 0.15672618 0.22500323 -1.6518534
000300 6d a8 1d 3f 62 6b 2c 3e 8d 37 fb bc 88 88 a7 3e
       0.6158512 0.16837838 -0.030666137 0.32721353
000310 82 02 f3 bd 96 c4 d9 3e 16 d2 a8 3e 6d f3 03 bd
       -0.11865713 0.42532796 0.32972783 -0.03221457
000320 71 5e 00 3f dc 86 8d 3c e1 dd 22 bf b3 1f 2a 3f
       0.50144106 0.01727622 -0.6361981 0.6645462
000330 3c 9e 00 3d a1 84 aa be 76 c5 07 3f b6 ab 5b 3d
       0.031400904 -0.33304313 0.53035676 0.053630553
000340 07 89 0b 3e 48 8b 4e bd ab be c4 3d 0a 30 62 3d
       0.1362649 -0.050425798 0.096066795 0.055221595
000350 34 37 f2 bd 5a 48 da 3e 99 5a a8 3e 30 e1 6a be
       -0.118269354 0.42633325 0.3288162 -0.22937465
000360 c0 fb 5c bd 4d 13 08 be 3a 67 cd be 1d 31 c2 be
       -0.053951025 -0.13288613 -0.40117818 -0.37928095
000370 22 6c 11 3d 1c 5f 89 3d 60 53 98 be 88 60 3e bd
       0.035503514 0.06707594 -0.2975111 -0.046478778
000380 2a da 50 3f 56 77 c1 3e 8f d6 43 3e 3e 39 54 3e
       0.8158289 0.3778636 0.19124816 0.20724961
000390 fd 8e a1 be 02 99 5b 3e 80 ca ff bd 3e bb 03 bf
       -0.31554404 0.21445087 -0.12489796 -0.51457584
0003a0 43 05 98 3e 83 55 87 3d c2 86 ab be 8e 91 1b 3f
       0.29691514 0.06608107 -0.3350125 0.60768974
0003b0 21 e1 80 be 87 5e 2f bf 85 8d 28 3f e0 28 3c 3e
       -0.2517176 -0.6850361 0.6584094 0.18374968
0003c0 26 01 13 3f 95 cd 90 be 49 a7 b1 3c f0 20 38 be
       0.5742363 -0.28281847 0.021686213 -0.17981315
0003d0 ab 67 84 3e 7c 55 c6 3e 52 5c ce bc c6 1e 8d be
       0.25860342 0.38737094 -0.025190506 -0.2756254
0003e0 31 9f e3 be 9a 9e c2 bd 3d 7e 00 bf d9 91 5b be
       -0.4445739 -0.09502907 -0.50192624 -0.21442355
0003f0 02 08 e2 bc 07 65 a8 3e fb 73 81 3d c1 a3 6b bf
       -0.027591709 0.32889578 0.0632095 -0.92046744

feature_layer.2.bias f4 [32]
000000 ee 99 08 bd 8b b2 13 3e 9d cf 5d 3e b8 ee 9e 3e
       -0.033349924 0.14423577 0.2166123 0.31041503
000010 16 b0 43 be 2e cc c5 3d ff 59 a0 3e 83 e9 0e 3e
       -0.1911014 0.09658085 0.31318662 0.13956265
000020 d5 3d 64 3e 4e 6a 7f 3d c5 91 ed 3e 6c 1d 69 3c
       0.22289212 0.06235724 0.46400276 0.014228206
000030 c0 c4 9b 3c 13 28 cc 3e 14 e2 88 3c e9 ae dd bd
       0.019014716 0.39874324 0.016709365 -0.10824377
000040 24 94 d4 3d 7d da c3 3d eb 6a 0f 3e 98 ea ea be
       0.10379818 0.09563158 0.1400563 -0.45882106
000050 6c 2b c9 3e ee 7b 71 3e 81 74 ec 3e 10 e3 49 be
       0.3929094 0.23582432 0.46182635 -0.19715524
000060 eb ea d4 3e 8d c7 8a 3e c0 a3 b3 3c f9 d2 24 3f
       0.41585478 0.2710537 0.021928668 0.6438442
000070 5f cf 81 be dd ce 12 3f aa f9 9f 3e e1 d6 fa 3e
       -0.25353524 0.573469 0.31245166 0.48992065

value_stream.0.weight f4 [32, 32]
000000 44 25 ae bd 10 f2 b4 3e bd 59 01 3f 13 5a f0 3b
       -0.085032016 0.3534093 0.50527555 0.0073349564
000010 4d 36 65 bf 14 72 72 3f cb 9f d9 3c 35 fb 3f 3d
       -0.8953598 0.9470532 0.026565453 0.04687043
000020 69 7b 1e 3e 91 4e 46 bc c9 75 53 3f 56 f8 20 3e
       0.15476765 -0.012103693 0.826016 0.15719733
000030 87 78 2e bf 56 23 30 3e 30 10 a1 bf bc f1 c3 bf
       -0.6815266 0.1720098 -1.2583065 -1.5308146
000040 b6 f1 8d 3d 02 05 37 3c c3 c0 dc 3f c1 fc be be
       0.06930868 0.011170628 1.7246326 -0.3730221
000050 11 c6 7c 3f 30 21 7e 3f 5f ba cc 3e 47 81 ca be
       0.98739725 0.9926939 0.3998594 -0.39551756
000060 d2 fa 43 3e cf e5 c0 3f 50 9c b1 bd f4 71 be 3f
       0.19138649 1.5070132 -0.08672392 1.4878526
000070 0c d6 e6 bf 25 60 b3 3e 0a b6 da 3d 3d 4d 8d 3e
       -1.8034072 0.3503429 0.106792524 0.2759799
000080 9b 50 27 3d 3a 90 67 3e 1a 3a 49 3e 35 ef 99 3e
       0.040848356 0.22613612 0.1965107 0.30065313
000090 e7 b5 9a 3f 68 25 6d bf a6 43 47 3e 8a fc e4 3e
       1.2086762 -0.926352 0.194594 0.44723922
0000a0 e4 d8 b1 3e 71 db 19 3f fa a7 17 bf ba 29 e6 3e
       0.34735787 0.60100466 -0.59240687 0.4495371
0000b0 83 64 eb 3e 30 7e 9e 3e 7a c0 a8 3e 26 90 2b 3f
       0.45975122 0.30955648 0.32959348 0.6701683
0000c0 00 9c b9 3e c3 e5 cb 3e 3f 3e 3d bf 83 03 03 3f
       0.3625183 0.39823732 -0.73923105 0.51177233
0000d0 85 b0 2b bf ad 91 72 bf 02 29 7f 3e 1a ad 00 3f
       -0.6706622 -0.94753534 0.24917987 0.5026413
0000e0 60 5d 72 3e 2e fe a7 bf b5 d4 2f be 29 5e 66 bf
       0.23668432 -1.3124444 -0.17170985 -0.89987427
0000f0 c4 3f 06 3f 6d 66 3b 3e 5d 8f b6 3e e9 4c 16 3e
       0.5244105 0.18300791 0.35656253 0.14677776
000100 4c 84 80 3d 3a 70 a4 3d 75 c7 66 3e 7c 21 08 3c
       0.062752336 0.08029218 0.22537024 0.008308765
000110 5f b3 c2 3e 92 84 0a 3f 34 a5 28 3d 5d 44 5d be
       0.38027474 0.54108536 0.041173175 -0.2160811
000120 a4 c2 b2 bd d0 8e cf 3e 3e 07 33 bd cd a2 7b 3d
       -0.08728531 0.40538645 -0.04370808 0.061434556
000130 e8 b6 5d 3e 9e 14 a7 be ae 0f 1c be 17 04 6f be
       0.21651804 -0.32632917 -0.15240356 -0.23341404
000140 b0 a5 e9 be 44 f6 b6 bd 8d 36 5b 3e 59 87 4f 3f
       -0.45634222 -0.0893369 0.21407528 0.810659
000150 dc 9f 25 bf ab 08 a1 bf 19 45 8e 3d 48 8b 05 3e
       -0.6469705 -1.258077 0.06946773 0.13041413
000160 e7 cc 36 3e d1 98 4c bf 64 00 c5 bd 52 0a c2 be
       0.17851602 -0.7992068 -0.09619215 -0.378985
000170 88 de f1 3d 4b d2 54 bf 83 41 22 bd 70 84 ce 3d
       0.118100226 -0.8313338 -0.039613258 0.10083854
000180 7d a9 ac bd c4 e0 a2 bd af bb e2 bd 4f 8d 3f be
       -0.08430765 -0.07953027 -0.11070954 -0.18706249
000190 b8 4c ff bc c2 ed 18 bc 18 5b fb bd ac f7 20 bd
       -0.031164512 -0.00933403 -0.12273234 -0.0392987
0001a0 fb 8e 05 bd a0 be 64 be 92 1e 85 3d 82 0e c3 3d
       -0.03260706 -0.22338343 0.064999714 0.095242515
0001b0 8a a1 95 3d bb 6b 97 bd 07 d3 3b 3d 83 43 59 be
       0.07306202 -0.07393595 0.04585555 -0.2121716
0001c0 9d 9d 9a bd 99 ae 8a bd 2a b5 7f bd d1 00 2e 3d
       -0.075495936 -0.06771583 -0.06242863 0.042481247
0001d0 3c f7 a4 bd c0 d8 a7 bc 2d e2 c9 bd ff fd 29 be
       -0.08054969 -0.020489097 -0.09857593 -0.16600798
0001e0 3e ca bd bd da 68 19 be 32 1b d3 3d 8c fb fd 3c
       -0.0926709 -0.14981404 0.103079215 0.031003736
0001f0 d3 cf f1 3d 6b bf da bd 7f b0 5e bd 85 91 99 3c
       0.118072174 -0.10681041 -0.05436754 0.018746147
000200 87 e3 4d 3e 95 9a be 3e 68 58 0b 3e cb 9f 00 3d
       0.20106326 0.37227312 0.13607943 0.03140239
000210 e8 39 7c 3f 07 b7 67 bf ce f7 69 3e fd 58 e6 3e
       0.9852586 -0.9051365 0.22848436 0.44989768
000220 20 95 38 3e ed 83 ef 3e cf 21 3d bf 67 5e 07 3f
       0.18025637 0.4678034 -0.7387971 0.5287842
000230 c9 95 1f 3f 87 23 57 3e 86 f5 ad 3e 4a 49 74 3e
       0.6233793 0.21009646 0.33976382 0.23856083
000240 54 83 63 3e 80 53 28 3d 33 48 33 bf a7 74 04 3f
       0.22218066 0.041095257 -0.7003204 0.517405
000250 82 0a ae bf 2a e9 ce bf 08 c6 33 3d 42 43 32 3f
       -1.3596957 -1.6164906 0.04389003 0.6963388
000260 fe ec 36 3e 48 2c 9c bf 64 a7 16 3e 99 aa 6c bf
       0.17863843 -1.2201014 0.14712292 -0.9244781
000270 de 5a 07 3f 16 77 b2 bd 86 3e 1f 3e 61 76 c1 3d
       0.5287303 -0.0871412 0.15551195 0.09446407
000280 d2 a5 a7 bd c9 c8 91 be cf 2f 6a be c9 af ca bd
       -0.081859246 -0.284735 -0.228698 -0.098968096
000290 b7 a6 0c bf c5 08 45 bd 78 4e 1f 3c ac 5f ed 3d
       -0.54941887 -0.048104066 0.009723298 0.115905136
0002a0 b0 a6 2d bd fc c1 d2 be c3 c0 3a be b8 27 7d be
       -0.042395294 -0.41163623 -0.18237595 -0.24722183
0002b0 f9 42 ab be 28 26 a2 3d 47 85 db bc ea d6 b1 bd
       -0.33449534 0.07917434 -0.02679695 -0.0868357
0002c0 fc 1e a6 3d 0b 38 19 3e 65 a2 a6 be ff 9c 95 be
       0.081113786 0.14962785 -0.32545772 -0.2922134
0002d0 74 b4 f0 be d0 fc 97 be b1 e8 35 bf b4 a9 cd bd
       -0.47012675 -0.29685068 -0.71058184 -0.10042134
0002e0 8a bc 6f bd 86 bf 17 3e b1 89 1a 3e 60 63 29 bf
       -0.058529414 0.14819154 0.15091588 -0.6616726
0002f0 9d 2c ca 3d a0 06 36 3d 06 83 a7 bd 59 2a 29 be
       0.098717906 0.04443991 -0.081792876 -0.1652006
000300 f7 a3 18 bd d4 fc 45 3e 44 04 ac 3e 32 7a 75 3e
       -0.037265744 0.19334728 0.33597004 0.23972395
000310 b6 05 b7 3f 20 39 93 bf 42 07 63 3e 85 1d 34 3f
       1.4298618 -1.1501808 0.22170737 0.70357543
000320 c4 67 08 3e ef 21 1b 3f 9d bc 41 bf d3 6d e6 3e
       0.13320833 0.60598654 -0.75678426 0.45005664
000330 2b 66 c9 3e 7c 45 74 3e e3 eb 10 3e af cd c5 3e
       0.3933576 0.23854631 0.14152484 0.38633487
000340 1b b4 d5 3e 5b c1 7a 3e a5 51 06 bf 47 7c 14 3f
       0.41738972 0.24487822 -0.5246833 0.5800213
000350 cb 27 2f bf 84 5a 84 bf 25 d5 17 3d b0 0d c0 3e
       -0.68420094 -1.0340123 0.037068505 0.37510443
000360 4c e8 a0 3e 73 4c 84 bf c8 bc b5 bd fc fd 74 bf
       0.31427228 -1.033583 -0.08873898 -0.9570005
000370 30 2a cd 3e 30 5e a3 3b 83 2a 42 3e 12 6f d4 3d
       0.4007125 0.0049855933 0.1896153 0.103727475
000380 fa e6 9e bd 03 42 e8 3d 55 a2 85 3d b6 fe 0b 3e
       -0.07758899 0.11340716 0.06525103 0.13671383
000390 ef c7 aa 3f f5 ce 91 bf fd 59 9b 3d b8 48 f3 3e
       1.3342265 -1.1391283 0.07585523 0.47516418
0003a0 7a ca 67 3e 40 57 95 3e 0e 85 7c bf 8f 64 16 3f
       0.22635832 0.2916813 -0.98640525 0.5874719
0003b0 34 a1 f9 3e 75 a2 52 3e 4f e2 ea ba 97 95 b9 3e
       0.487558 0.20569785 -0.0017920228 0.3624694
0003c0 c8 f8 a2 3e e4 13 43 3e b9 71 2e bf 5d 42 10 3f
       0.3183043 0.19050556 -0.68142277 0.5635126
0003d0 1a aa e0 be ef f4 56 bf 41 10 3b 3e 7c d4 19 3f
       -0.43879777 -0.8396749 0.18267919 0.6008985
0003e0 f4 b1 50 3e 90 e3 a9 bf 29 52 26 3e 9c 97 5c bf
       0.20380384 -1.3272572 0.16242279 -0.8616884
0003f0 28 22 84 3d 59 7f 91 3d 3e ea a1 3e ef e2 69 3e
       0.06451827 0.07104368 0.31624025 0.22840475

value_stream.0.bias f4 [32]
000000 c6 37 1d 3f 06 79 48 3e 4f e4 5a be f9 42 13 be
       0.6141323 0.19577417 -0.21376155 -0.14381017
000010 fc 5e e0 3e 9a 9d ab 3c 98 41 28 3e 59 0b 85 3e
       0.43822467 0.020949174 0.16431272 0.2598522
000020 4b cc 6e 3e c7 47 0d 3e 56 ab d9 3e 06 55 3d 3f
       0.23320119 0.13796912 0.4251353 0.7395786
000030 80 bf ad 3e 00 a5 9b 3e 44 a8 3b bd ce 5a 5b 3e
       0.33935165 0.30399323 -0.045814767 0.21421358
000040 53 0d bd 3e 9e 14 2a 3f df 87 ba 3e e4 da 3f be
       0.36924228 0.6643771 0.36431786 -0.18735844
000050 5d 81 f1 bd 0d d6 97 3e e1 79 b5 3e b9 80 cb bc
       -0.11792252 0.29655495 0.3544455 -0.024841653
000060 a5 2b 46 be 9a 9c cf 3e ac 3f 91 bd 99 71 b7 3d
       -0.19352587 0.40549165 -0.070922226 0.08957214
000070 0a bf b3 3e cf 53 b4 3e 2e b9 92 be 89 8b 2b be
       0.3510669 0.3522019 -0.28656906 -0.16752447

value_stream.2.weight f4 [1, 32]
000000 3f 15 b9 3f cc 6d d9 be f3 5a 82 bf 71 f5 1c 3d
       1.4459609 -0.4246658 -1.0184005 0.03832001
000010 b7 25 fc be 71 04 94 be c7 ce 13 bf 8e c3 1d bf
       -0.49247524 -0.2890964 -0.5773739 -0.6162652
000020 4e ce 07 bf 97 3f 00 bf ab 1f 09 bf 2d e9 f4 3f
       -0.5304917 -0.5009703 -0.53563946 1.913366
000030 9f 5d f2 be ac fa 04 bf 31 74 49 3e 8f 96 2b bf
       -0.47337052 -0.51944995 0.1967323 -0.6702661
000040 38 f1 17 bf 5c 25 e2 3f dd ea 14 bf 1e 44 36 3d
       -0.59352446 1.7667651 -0.5817087 0.044498555
000050 78 c0 01 3e cd e5 0f bf e9 22 21 bf 2a fd 57 3f
       0.12671077 -0.56210023 -0.62943894 0.8437067
000060 d7 21 84 3d 28 4b ef be 0d ec f7 bd d0 ae 0e bf
       0.06451767 -0.46737027 -0.1210557 -0.5573549
000070 a2 b0 cb be 24 7a 00 bf dc b8 92 3f 96 59 e0 3c
       -0.39783198 -0.5018637 1.1462665 0.027386468

advantage_stream.0.weight f4 [32, 32]
000000 7f bb b9 3d ae a5 0f 3f 53 19 45 3e 73 ea be 3e
       0.09068965 0.5611218 0.19247942 0.37288246
000010 07 66 97 bc 74 60 73 be 67 52 a0 bd 16 78 fe bc
       -0.018481268 -0.23767263 -0.07828217 -0.03106312
000020 aa 13 4b 3e af 20 41 be ec c2 ac bf 5d 9a a4 be
       0.1983172 -0.18860124 -1.3496985 -0.3214902
000030 26 39 32 3f 05 80 96 3c ad 9e 9e bd a4 ba 4c 3e
       0.6961845 0.018371591 -0.07745109 0.19993073
000040 50 b4 df bd 2a 10 b5 3d bd 2f 09 bf 1e 58 00 bf
       -0.10923064 0.08840974 -0.5358847 -0.50134456
000050 aa dc 7d bf 0a cf 44 bf 59 40 d4 3d 0b fc da be
       -0.9916483 -0.76878417 0.10363836 -0.4277042
000060 0c ef 9a 3d 17 36 23 3e 1c 8d 1d 3d be 31 ee be
       0.07565126 0.15938602 0.03846465 -0.46522325
000070 49 d5 77 3e 4a 9c a3 bf 09 46 33 3d ca 55 6c 3d
       0.24202456 -1.2782071 0.043767963 0.057699002
000080 18 0f 2b 3d e4 49 dc bb 51 e7 36 bc 04 f9 11 be
       0.04176244 -0.0067226756 -0.011163549 -0.14255148
000090 bd 71 06 3e 51 82 84 3d 6a 92 16 be 35 8b 28 be
       0.13129325 0.064701684 -0.1470429 -0.16459353
0000a0 34 63 48 bd ab a0 a4 3d 5e 05 cb bd 80 ba 1a 3e
       -0.048922732 0.080384575 -0.09913133 0.15110207
0000b0 05 e7 d7 bd 2b d8 21 be 34 36 75 3d a6 d0 f2 bd
       -0.1054211 -0.15805118 0.059866145 -0.11856203
0000c0 c2 ba 11 bd b4 d7 61 bd 60 05 13 bd 91 d2 3c be
       -0.035578497 -0.05513735 -0.035893798 -0.184397
0000d0 45 e0 2a be 79 8a 92 3d 22 23 51 bd 8c 64 da bd
       -0.16687115 0.07155318 -0.051058896 -0.10663709
0000e0 78 a9 25 bd e4 38 25 be 68 33 40 3d 65 62 73 3d
       -0.04044482 -0.16134983 0.046924025 0.05942001
0000f0 24 b6 1a 3e 47 3c 2e be f8 80 6d bd 99 ef 92 3d
       0.15108544 -0.17015181 -0.057984322 0.07174606
000100 a9 e5 25 3e 1e f5 26 be ec 88 c6 3d b8 f3 d0 bb
       0.1620089 -0.16304442 0.096940845 -0.00637671
000110 9a ed a3 3a 66 08 02 bf 02 2b e2 3d 81 33 99 be
       0.0012506724 -0.50794065 0.11043359 -0.29922107
000120 0e b9 66 be 47 8c 64 bd 1f d6 b6 be ab a0 1f be
       -0.2253153 -0.05579784 -0.35710236 -0.15588634
000130 6f a9 7a 3e ef 0e b9 bd ae cf a8 3e d6 fd d2 3e
       0.24478696 -0.090360515 0.32970947 0.41209286
000140 04 26 97 bd a6 b6 b2 be 54 11 11 bd 76 16 ee 3d
       -0.07380298 -0.34904975 -0.035416916 0.11625378
000150 fe dc e1 be cc 2d 98 bf 11 86 f5 bd 0e 5f 35 be
       -0.44113916 -1.1888976 -0.11988462 -0.17712042
000160 2a 8e 6c 3c dc 65 c0 3b c3 aa c8 bd 56 2d 73 bf
       0.014438191 0.0058715176 -0.09798195 -0.9499105
000170 ce 31 d2 3d 69 ca 35 3e 7c 4c 55 be 73 cd eb bc
       0.10263406 0.17752995 -0.20829958 -0.02878449
000180 2c a4 14 3d 92 db 8e 3d a9 b4 e0 bd e0 e1 c2 3c
       0.03628938 0.069754735 -0.10971958 0.023789346
000190 a6 e3 9b 3d 13 43 1b 3e da 39 08 be d8 fe b3 bd
       0.0761178 0.15162306 -0.13303319 -0.08788842
0001a0 7c ef 52 3d 60 f5 b9 bb 42 50 f4 bd e5 5a 18 be
       0.05149792 -0.005675003 -0.119293705 -0.14878424
0001b0 7d bb 20 be fd 55 fd bd 0b 25 9a bd 43 66 fb bd
       -0.15696521 -0.123699166 -0.07526597 -0.12275364
0001c0 76 cc 1e be 40 15 62 3c e2 51 d4 3d 4e b2 aa bd
       -0.15507683 0.013799012 0.103671804 -0.0833479
0001d0 f0 cf 90 3c c0 d1 0e bb 9a 3a a9 3d 88 13 fb bd
       0.017677277 -0.0021792501 0.082631305 -0.12259585
0001e0 c0 81 09 3c 69 f6 28 3e a9 3b 01 3e 4b 69 33 be
       0.008392751 0.16500248 0.12620415 -0.17520635
0001f0 28 01 da bc 00 fd d7 3a 6a 16 6f bd b6 da ed bd
       -0.02661188 0.0016478598 -0.058370985 -0.116139814
000200 28 45 fa bd f5 4b 88 3e 52 17 05 bd 2f fe a2 3d
       -0.12220222 0.2662045 -0.032492943 0.07958638
000210 2d 32 4e 3f a9 16 b3 bf c2 20 cd 3e 84 7d 58 3f
       0.8054531 -1.399129 0.40064055 0.8456652
000220 95 da 94 3e f0 21 f7 3e e1 11 9c bf df bf 56 3f
       0.29073015 0.4826808 -1.2192956 0.8388652
000230 7f f8 68 3e e5 70 99 3e c2 ab 73 bd 1d 2d 24 be
       0.22751044 0.29968944 -0.059489973 -0.16032834
000240 2c 8d ae 3e d8 26 23 3f 94 20 05 bf 68 dd 01 3f
       0.3409208 0.63731146 -0.52002835 0.50728464
000250 ac b7 01 bf ef 79 5e bf a1 db 71 bd 91 2a 77 3e
       -0.50670886 -0.86904806 -0.059047345 0.24137332
000260 a2 aa 9a 3e 52 cf c4 bf 1b e6 ca 3d 12 0a 5b bf
       0.30208308 -1.5375769 0.099071704 -0.8556224
000270 e7 40 78 3d 33 fa 4a 3f bb 8f 7c 3e 7a 5b e0 3d
       0.06060877 0.79288024 0.24664204 0.10954948
000280 bf 36 94 bd c9 00 9e 3e c8 ec 17 3f b1 1f 1d 3f
       -0.072370045 0.30859974 0.59345675 0.6137648
000290 df bd 67 bf 9b fc b0 bd 44 1b 00 3e 37 3e 41 be
       -0.90524095 -0.08641931 0.12510401 -0.1887139
0002a0 7b e7 45 bf 29 a7 fd be ba 48 e0 bd 93 25 6b 3d
       -0.77306336 -0.49541596 -0.109513715 0.05740888
0002b0 f6 c4 bf 3e b1 8d dd bd 86 fe 8e 3e 64 ac b5 bb
       0.37454957 -0.10818041 0.2792856 -0.005544232
0002c0 df c2 9f be 0f ed 15 bf 70 94 c5 be 17 9c 31 3e
       -0.31203362 -0.5856485 -0.3858981 0.173447
0002d0 8b 5f 51 3e 29 dd 40 bf 42 e8 a9 3e 97 a2 38 be
       0.20446603 -0.75337464 0.3318501 -0.18030773
0002e0 83 a8 b2 bd 72 84 40 3f bf 51 14 3e 8e c6 be be
       -0.08723547 0.75202096 0.14484309 -0.3726086
0002f0 1d f0 1b be ff 80 0a 3f 41 e1 07 3d 27 b2 04 3e
       -0.15228315 0.5410308 0.033173803 0.12958585
000300 4d bd 2a be f4 ea d1 3d e8 ba 49 be f4 31 9a bd
       -0.16673775 0.10249892 -0.19700205 -0.07529059
000310 90 a9 33 3c ae 95 97 bd cb c9 dd bd d4 7f 36 be
       0.01096572 -0.07401596 -0.108295046 -0.178222
000320 94 24 06 bd 6b 4b 79 bd bb 3c fb 3d ae 61 6e bd
       -0.032749727 -0.06086294 0.12267443 -0.058198623
000330 08 2c c2 3d cc d3 17 bd e6 b7 b7 bd f2 ea 55 bd
       0.094810545 -0.03706722 -0.08970623 -0.052226014
000340 cd a8 83 bd 3d de 22 bd d6 b2 73 bd 83 ad 04 3d
       -0.064286806 -0.039762724 -0.059496723 0.032392036
000350 89 9d c6 3d 5e 56 ab bc 59 6f b4 3c f6 90 df 3d
       0.09698016 -0.020915207 0.022025751 0.10916321
000360 88 04 d3 bb a6 e3 a6 3d 5a e8 bd 3d 63 52 f1 3d
       -0.006439749 0.08148889 0.09272833 0.11783292
000370 0c a9 2f be 3c 97 eb 3c cd 41 58 bd 83 c2 9c bd
       -0.1715433 0.028758638 -0.052797128 -0.07654288
000380 12 c3 97 bd e2 4b f8 3d 75 3e c2 3e 8b e5 72 bc
       -0.074102536 0.121238485 0.37938276 -0.014825235
000390 07 c3 39 3f 90 22 1e 3e bf 3a d1 3d 6f 68 ee 3e
       0.72563213 0.15442872 0.10216283 0.46564052
0003a0 bb 1e f7 3e 5b 39 14 3f 48 17 63 bf ef 97 28 be
       0.48265633 0.5790002 -0.887074 -0.16464208
0003b0 14 22 92 3e 61 e6 8f 3e 81 3a fc bc f3 11 47 3f
       0.28541625 0.28105453 -0.030789616 0.77761763
0003c0 74 44 c0 3e ed 35 99 3e 5d 7e 1e bf d3 b0 b0 3e
       0.37552226 0.29923955 -0.61911565 0.34509906
0003d0 33 9a fb be 45 21 10 bf 84 38 00 3e 14 e6 6c 3e
       -0.49141082 -0.56300765 0.12521559 0.23134643
0003e0 a4 f6 17 3e 66 71 6b bf ff 68 1c 3e 12 96 ed be
       0.1484018 -0.9196991 0.15274428 -0.46403557
0003f0 5c ad 57 3f 0d 11 75 bf 40 aa b0 3e be 5e bc 3e
       0.842489 -0.9572914 0.3450489 0.36791033

advantage_stream.0.bias f4 [32]
000000 b8 b1 b4 3e 50 00 e6 bd bf 30 4f 3c bf 77 18 be
       0.3529184 -0.11230528 0.012645899 -0.1488943
000010 34 27 12 3f 47 22 93 3e 72 78 5d be 97 3b 7b 3e
       0.5709107 0.2873709 -0.21627977 0.2453445
000020 b1 96 6c 3e 0d 7e 16 bc 3d 7c bd 3d 15 e3 04 3e
       0.23104359 -0.009185326 0.09252212 0.1297725
000030 d6 01 68 3f 00 43 14 3e 4f 4e 02 3f 18 5c 0c 3f
       0.906278 0.14478683 0.5090074 0.54828024
000040 be 53 ff 3e fd 03 15 3f 30 aa 43 bf c4 da b5 bb
       0.49868578 0.5820921 -0.7643156 -0.0055497605
000050 5c dd 0e 3e f8 10 9c 3d 33 b9 a3 3d 50 23 c7 3d
       0.1395163 0.07620424 0.07994308 0.09723532
000060 d4 b3 b0 3e b5 84 cd 3e a8 19 2b be cc f0 ff 3e
       0.34512198 0.4014031 -0.16709006 0.499884
000070 85 53 c7 3c 8e f1 3c be 2e 3e 89 3e 2a db 1d 3c
       0.024331817 -0.18451521 0.26805252 0.009634772

advantage_stream.2.weight f4 [4, 32]
000000 8f 9d 11 bf bb 71 11 bd e6 ef 5b 3e f0 34 33 bc
       -0.5688104 -0.035508852 0.21478233 -0.010937914
000010 c9 40 90 be 62 2f 2c 3e 91 12 90 bd 44 f1 29 bf
       -0.28174427 0.1681495 -0.07034791 -0.6638377
000020 cb ab 4f 3f 94 ae 01 3f e4 81 d6 bf 16 50 8f bf
       0.8112151 0.5065701 -1.675839 -1.1196315
000030 24 d6 6e 3f 66 fe 88 be f9 9a ea be fe c4 c3 be
       0.932955 -0.2675659 -0.4582136 -0.3823623
000040 57 d8 89 3f 19 44 c3 be 65 2f 4d 3e 92 c0 04 3e
       1.0769147 -0.38137892 0.20037611 0.12964085
000050 f3 ef 71 3e d1 5a 07 bf 84 c6 94 3d 1c 08 05 be
       0.2362669 -0.5287295 0.07264426 -0.12991375
000060 30 56 7c be f1 7b 42 bf 60 6a 17 3c 28 f1 0d be
       -0.24642253 -0.7597037 0.00924167 -0.13861525
000070 7c f4 86 3e 3b c9 d1 3d 38 ec 76 be cf ae 2d bc
       0.26358402 0.1024346 -0.24113548 -0.01060076
000080 bc f3 f3 3e 64 c9 03 be 1e 2f d4 3d 7c 3e 2e bd
       0.47646892 -0.12869793 0.103605494 -0.04254006
000090 b3 b9 24 be af 28 00 3f 18 c6 32 3e 97 34 9d be
       -0.16086464 0.5006208 0.1745838 -0.30704185
0000a0 46 ae 87 3d d8 2c c1 be 6f 4c c0 bf 19 e8 a3 bf
       0.06625037 -0.37729526 -1.5023326 -1.2805206
0000b0 2d b8 af 3f 7d c6 51 3a 10 aa ae be 6a 22 09 bf
       1.3728081 0.00080022943 -0.34114122 -0.53568137
0000c0 e5 ee 4e 3f b5 30 b6 be 0e 4c 02 bf f0 ec 9a be
       0.80833274 -0.35584036 -0.508973 -0.30258894
0000d0 b2 53 58 3f 3a dc ca be 92 fe 92 bc 08 b2 58 bf
       0.8450271 -0.39621145 -0.017943654 -0.84646654
0000e0 11 e5 df 3e 49 77 40 bf 98 a0 0b 3d 2d 4e 8c be
       0.4372945 -0.75182015 0.0340887 -0.27403393
0000f0 31 45 f8 bc 81 92 d1 3d fa 53 4d be ea fc 01 be
       -0.03030643 0.102330215 -0.20051566 -0.12694135
000100 64 46 4d 3e 5e 0f f0 bd ef 3d ae be 31 49 2c 3e
       0.20046383 -0.11721681 -0.34031627 0.16824795
000110 2b 95 06 bf 39 3d 1c bf 29 84 0d be 81 ff c0 3d
       -0.5257136 -0.6103092 -0.13819946 0.094237335
000120 eb 0f 9f be aa 17 0a 3c c9 a8 b2 3e eb 89 ed 3e
       -0.31066832 0.0084284935 0.34894398 0.46394286
000130 04 00 43 3e 70 9f e6 be ba 92 f3 be 80 6d b8 be
       0.19042975 -0.45043516 -0.4757288 -0.36021042
000140 b2 9a f7 bd 1f 27 c6 be 87 79 e7 be a5 6c 1d be
       -0.12090053 -0.38701722 -0.45209906 -0.15373476
000150 32 45 83 3f 88 e6 e2 be 07 b7 8e bd 7f ef a1 3f
       1.0255492 -0.44316506 -0.069685034 1.2651213
000160 0f 80 26 bf 41 51 2a bc 5c fa 42 3d 57 fe 30 bf
       -0.6503915 -0.010395349 0.047602043 -0.6913809
000170 ec e7 c6 3f ab 70 36 bd 27 33 1e bf db e8 4e be
       1.5539527 -0.044541042 -0.617968 -0.20206015
000180 a2 93 12 bf 61 c5 07 3d bb 5b 69 3e 66 c5 94 3d
       -0.5725652 0.03314722 0.22788899 0.07264213
000190 4a f2 f1 be 7a 0f d2 3f 3c 7c 09 bd 35 4b e4 be
       -0.47255164 1.6410973 -0.033565745 -0.44588628
0001a0 57 65 dd 3e 12 9b 3e 3f a4 f3 8c be 85 ab 06 bf
       0.4324138 0.7445537 -0.27529633 -0.5260547
0001b0 ed d2 0c 3f 5d 42 54 be 8d a0 af be c7 6f 5e bf
       0.5500935 -0.2072844 -0.34302178 -0.8688931
0001c0 e4 33 59 3f 97 c8 dd be 07 bd 82 3e 3f 64 9d 3e
       0.84844804 -0.433171 0.2553484 0.30740544
0001d0 a8 3c 0c 3f ab 99 8e 3c 03 10 8e 3d ed d9 79 be
       0.54780054 0.017407259 0.06936648 -0.24399538
0001e0 76 3d b7 be 63 bd cc be 0c d1 db bd 79 48 2c 3e
       -0.35789078 -0.3998824 -0.10733232 0.16824521
0001f0 e4 84 95 3e 6e a8 e6 bd 7b 73 47 be b9 b5 8b bf
       0.2920295 -0.11262594 -0.19477646 -1.0914832

advantage_stream.2.bias f4 [4]
000000 41 a7 06 3f e4 c6 fc 3d 00 60 61 be 77 4b 1b be
       0.5259896 0.12342623 -0.22009277 -0.15165506
