cross-entropy/checkpoint.pth (torch_old, 1082 bytes, 3 tensors)

fc1.weight f4 [16, 2]
000000 90 84 08 3f 81 ae 83 40 c2 e2 ad bf 40 ae 75 40
       0.53327274 4.1150517 -1.3584826 3.8387604
000010 85 91 24 bf 1c 10 44 c0 a5 2b 88 bf 4a d3 39 bf
       -0.64284545 -3.0634832 -1.0638319 -0.72588027
000020 2c b4 46 bf 81 07 d5 3d ea 6a a5 3f 3f 68 25 3f
       -0.7761867 0.10401822 1.2923253 0.6461219
000030 a6 53 e7 be b5 68 d5 3f 92 fa 3f bc 05 f9 28 c0
       -0.45181006 1.6672579 -0.011717455 -2.640199
000040 29 85 78 3f ec e4 63 40 e0 fd c4 3f c3 15 0f bf
       0.97078186 3.5608473 1.5389977 -0.5589258
000050 53 3d 9c bf 1e 05 09 40 e5 2c 7c bf 1b 81 be 3f
       -1.2206215 2.1409373 -0.98506004 1.488315
000060 dd e1 a5 be e1 57 f6 3e 90 7a 46 bf a6 ed 91 40
       -0.32398883 0.4811392 -0.77530766 4.56026
000070 6a 38 47 3f 23 3a a4 bf 48 a5 56 3e 57 72 81 bf
       0.77820456 -1.2830242 0.20961487 -1.0113019

fc1.bias f4 [16]
000000 fe 41 14 3e 09 e7 9c bf 65 56 95 bc 97 1d b3 bf
       0.14478299 -1.2258006 -0.018229673 -1.3993405
000010 e4 40 34 3f 57 b2 07 c0 37 f2 30 c0 2f 3d 96 3e
       0.70411515 -2.12026 -2.7647836 0.29343554
000020 24 95 f8 3d 70 6d 1a 3e 4e ea 26 c0 6b dd 65 be
       0.12137821 0.1508081 -2.6080508 -0.22447746
000030 a4 fa 2b c0 3f 37 ba bd 9c 0b 27 be 9b da e6 3e
       -2.687173 -0.090925686 -0.16313022 0.45088658

fc2.weight f4 [1, 16]
000000 2e 0c 3e 40 30 a5 1e 40 2b 62 ae bf 29 27 99 be
       2.9694934 2.4788322 -1.3623708 -0.2991269
000010 9e d9 06 bf 44 6e 38 bf 10 8e 16 c0 ba f6 f2 bd
       -0.5267581 -0.7204325 -2.3524208 -0.118634656
000020 91 2b d6 3f c0 4a d8 3f ee ea ac 3e b5 7c 78 3f
       1.6732045 1.6897812 0.33772987 0.9706529
000030 f2 b5 69 3e d2 83 c2 3f aa 47 53 3d 98 b2 e6 be
       0.22823313 1.5196478 0.051582016 -0.4505813
