Deep Q_Network/dueling double Q Network/cart_pole/checkpoint.pth (torch_old, 11458 bytes, 9 tensors)

feature_layer.0.weight f4 [32, 4]
00000000: 9f57 74be 4230 0f3e 3af8 8ebf 37d1 0bbf
00000010: c655 17bf 3f79 383e cd3c 833f c8a7 5c3e
00000020: 7c45 6a3d a2f6 19bd 0f55 b8bf a17f 5bbe
00000030: d00c 15bf dc14 f8be 347f bdbf 77c8 ebbd
00000040: 3fd8 b53e 939a 75bd 6c3b dbbf 8cc4 b5be
00000050: 08a1 753d 9d6d 9c3e ba54 0b3f d158 ed3e
00000060: 13cf 063d cc48 963d 3781 2b3f e23b f8be
00000070: 8cc7 84be 3fd1 8abe 63f8 0a3d 1d3d 173f
00000080: 27dc a7be 0fba 96be 8817 b5bf 5b13 40bf
00000090: 8107 bfbe 548a 0f3f f6bd 783f 1b07 833e
000000a0: 6ee6 9cbe 7836 eebe a313 59bf 126a 18bf
000000b0: df4d e3bc c790 a7be 70f9 c23e 29cf f83e
000000c0: 916c af3d 9586 243d b68d 153f a3b6 163f
000000d0: 7cff 953e fc3e 813b aca0 0b3f 2769 39be
000000e0: 64e6 b23e 2acf afbe 8b1e 06bf aad2 a8be
000000f0: b551 ca3f e63a d93e 5c0b dfbf e7b9 fd3d
00000100: 6e89 8c3e 203f 81bd 4064 9c3c 0044 ed3d
00000110: b4d9 3c3f 33a5 6f3e 056a e2bf b085 8fbe
00000120: d14f 25bd 6738 983e 47ac b23f ddb0 dc3e
00000130: ad6d aebc c031 2abf 1b3b c9bf 6064 a6be
00000140: 99ba b5be 4e96 573f d92d 833f f8ec 2abf
00000150: 33e6 623e beeb 85be 79ac c9bf b3b0 e9be
00000160: 6dc3 41be a828 93be f195 9e3f 12ec 673d
00000170: 8188 0c3f d644 50be 82f6 fbbf 9bfe e6be
00000180: cd07 9b3f e739 d23d 2462 c4bf 2f81 d4be
00000190: 3c1f bf3e e780 683e f76b 643d 65a0 bebe
000001a0: 4102 e9be 456e 3dbe f960 61bf c4e7 cebe
000001b0: 66b0 26bc db76 c03d 0e62 62be 2332 8e3e
000001c0: ef30 86be 23a7 003f 413f 763f e707 9bbe
000001d0: 88db febd 80d2 b83c 1867 953d d0dd f23d
000001e0: fbe3 a0be d0ff cf3d 3fcc 293f 1a75 e43d
000001f0: cc64 27bf fc9b cfbe ee90 8abe 7a4b bbbd
-0.2386155 0.13983253 -1.1169503 -0.5461611 -0.59115255 0.18015002 1.025293 0.21548378
0.05719517 -0.037588723 -1.4400958 -0.21435405 -0.58222675 -0.48453414 -1.4804444 -0.11512845
0.35516545 -0.059961867 -1.7127509 -0.35501516 0.059968024 0.30552378 0.5442616 0.46356824
0.032912325 0.07338104 0.6699404 -0.48483187 -0.25933492 -0.27112767 0.033928286 0.59077626
-0.3278515 -0.29438826 -1.4147806 -0.75029534 -0.37310413 0.56070447 0.9716486 0.2559136
-0.30644554 -0.4652593 -0.8479559 -0.5953685 -0.027747093 -0.32727644 0.3808093 0.4859555
0.08565629 0.04016741 0.5841936 0.5887243 0.29296482 0.003944276 0.5454204 -0.18106519
0.349414 -0.3433774 -0.52390355 -0.32973224 1.5806185 0.42427748 -1.7425342 0.12388974
0.274486 -0.06310868 0.019090772 0.115852356 0.7376969 0.23402862 -1.7688605 -0.28031683
-0.040359322 0.29730532 1.3958825 0.43103686 -0.021292532 -0.6648216 -1.5721163 -0.32498455
-0.35493925 0.8421372 1.0248367 -0.66767836 0.22158127 -0.2615642 -1.575576 -0.45642623
-0.18922205 -0.28741956 1.2389508 0.05662162 0.5489579 -0.20338759 -1.9684603 -0.45116124
1.2111756 0.1026495 -1.534245 -0.4150481 0.37328517 0.22705422 0.055767026 -0.37231746
-0.45509532 -0.18499096 -0.88038594 -0.40411198 -0.010173893 0.0939767 -0.22107717 0.27772626
-0.26209208 0.5025503 0.9619027 -0.30279467 -0.12444216 0.022561312 0.07295054 0.118587136
-0.31423935 0.10156214 0.6632728 0.11155148 -0.6538818 -0.40548694 -0.27063698 -0.091452554

feature_layer.0.bias f4 [32]
00000000: 6c6e c9be f55e 04bf 932d 78be 0332 263e
00000010: d346 a6be e5a0 e53e 4fd8 533f ef10 0a3f
00000020: c828 11be 4096 053f 0a19 093f c99f 4b3f
00000030: 9455 783f e5c7 503f 83b4 4a3f e109 eb3e
00000040: 66f8 e5be d6c4 52bd 7af0 1c3f 4e3f c73e
00000050: 801b 84be 2603 9cbe 03d5 b1be b1ff c8be
00000060: dd1c 9a3e 96a7 3f3f 273b 233f bfb1 00bf
00000070: de95 3f3f 8a52 c8be c7c3 aabe 50ae eebe
-0.39342058 -0.5170739 -0.24236135 0.16230015 -0.3247591 0.44849315 0.82751936 0.5393209
-0.14175713 0.5218239 0.5355383 0.7954069 0.9700558 0.81555015 0.7918169 0.45905975
-0.44916075 -0.05145725 0.6130444 0.38915485 -0.2580223 -0.30471152 -0.34732828 -0.39257577
0.30100146 0.7486509 0.63762134 -0.5027122 0.74838054 -0.39125472 -0.3335249 -0.46617365

value_stream.0.weight f4 [32, 32]
00000000: f14e 4fbd 2abe 2abf 5761 aebf 18f3 053d
00000010: 2015 21be 274d 8e3e 9126 aa3e f64b 9a3e
00000020: c556 b6bd c189 003f c763 c63e a31d 913e
00000030: 751a 303f 8be7 1a3f 6662 7d3e e08d 003f
00000040: e81b a7bc 30a3 70bd f853 db3e 57f5 063e
00000050: 123c 5f3e e8c6 51bf e065 5abd 176b 46be
00000060: ba74 353e dc90 943e 5462 6e3e 7e5c c7bc
00000070: 4626 5c3e 262b c43d 4705 5cbf 41eb d13d
00000080: cc5f ffbd d02c 013c a236 ffbd eb4b c7bd
00000090: 40f6 d2bd 2873 773d 5dbe d7bd 00c2 7cbb
000000a0: 40af f33b e260 e93d 0ed6 08be 428b f8bd
000000b0: d038 d2bd 2a67 fd3d e623 82bd 11b0 183e
000000c0: 7aea 823d c05f b73c 807b acba 0023 0fbd
000000d0: d8b1 b53c d856 25bd 80ce a2ba 40c6 b83c
000000e0: 2098 0dbe 7fc1 bdbd fb2b 123e d8e7 12be
000000f0: 10f9 4fbc 4312 333e 22c8 823d c001 a43b
00000100: 09dc d63c 9ba9 f63e fbf2 2ebf 3796 adbe
00000110: f0a4 cabd 051f 82bc f41c 333e 9b20 123f
00000120: 22f0 163e d20f 4e3f f7d2 c33d b354 773e
00000130: 21ec fb3d c580 6ebe 66cb d3be 8183 1fbf
00000140: a815 6f3d 2608 323e 2750 213e 175b 66bf
00000150: 9ef3 b63e f085 9ebe 4853 c33e 0301 57be
00000160: 2584 863d 9e01 86bd cbbc f8be 6926 1a3c
00000170: 312e 6b3e 74a9 53bd 8aa4 1c3e 891d eebe
00000180: 2d98 2dbe 078a 0dbf 5bf2 9cbf 131a 1d3d
00000190: 1be0 2abe a227 bf3e 1804 ea3e 8253 ba3e
000001a0: 3888 033e 2859 e43e 45a4 213e a730 c33e
000001b0: becb 243f b13a 073f 8033 8d3e 7080 a23e
000001c0: ef25 2bbe fefa e43d e5b6 093e 54d3 b73d
000001d0: c6b5 bd3e 31f0 64bf fb78 4cbe 8891 fbbd
000001e0: 9c79 e73d f8b9 883d 2528 a23d 511e 1e3e
000001f0: 7f7a b43e 972d 163e ea5e 88bf fda6 053d
00000200: 2a7c 0ebd 2764 22bf 35b5 99bf 8436 613e
00000210: 2f77 65bb 5cf3 8d3e e674 9e3e f7c0 033e
00000220: 5b13 3c3e 684c ba3e 0c11 8b3e 2c8f 883e
00000230: 432e cf3e 2a09 fd3e a03e 833e fe18 df3e
00000240: e831 0e3d 3407 64bd dac6 843e 483c a13e
00000250: f676 8e3e 15c2 48bf 8a6e a2be 1a26 41be
00000260: 8dc9 293e 579a e43d c5df 8d3e cd79 da3d
00000270: 9985 5f3e 0081 e43a 95ce 6cbf 5f64 87bb
00000280: 2582 c93c 5d48 1dbf b9f8 a2bf 68bc 4e3e
00000290: 9c46 5e3d 0c69 e13e 2b2f f63e 614f 883e
000002a0: ef49 1e3e 6173 d73e 9b77 8f3d 8916 4d3e
000002b0: ddd5 323f 2f1a 1b3f 440a 833e 4a5e f13e
000002c0: 2fb3 083e 713a 7f3e 084f d73e 52b2 c83e
000002d0: 66d0 373e dc67 56bf 51d9 0fbd f721 a0bd
000002e0: a316 933b 46f5 b63e 9178 a53e db33 de3d
000002f0: 7b87 663e d8bc 4f3d 30b1 89bf 3c44 f03d
00000300: 7db1 bcbe b3c2 16bf 75d6 02c0 4309 ea3d
00000310: 9c92 75bf 3bb8 943e 3473 093e 96c0 2f3e
00000320: 030f 53be 243f 183e 8b03 63bd 7c1a b43e
00000330: e744 003f 8eb2 113f af10 c43e 8938 663d
00000340: 0211 f7bd c110 babe 7dd0 003d 9420 883e
00000350: b3eb 02be 499a edbf 3902 cabe ab05 96bf
00000360: 1ef0 61bd c077 1b3e cdd9 6f3e c14d f43d
00000370: 6144 c83e d068 39bd a10a 7cbf 4858 f13d
00000380: 5a8f 883d 7043 eebe edc0 88bf 0f09 933e
00000390: 505d 06be 8c2e ba3e 7b32 cb3e 25c3 483e
000003a0: 63df f6bc c7ac d23e 98f3 a23d d392 ee3e
000003b0: 470f 253f e810 f33e 3358 8b3e c893 0a3f
000003c0: 0e85 e73d 753f ae3d 6a83 313e 1e95 d53e
000003d0: 2e84 963e 96a9 6bbf d053 76bc 6093 3ebd
000003e0: 8218 3e3d b398 973e f55d 0a3e c5f2 75bc
000003f0: 6fe6 f83e a058 ef3b e59d 92bf cbdc a4bd
-0.050612394 -0.6669642 -1.3623456 0.032702535 -0.15730715 0.27793238 0.3323255 0.3013608
-0.08903269 0.50210196 0.38748 0.28342924 0.6879037 0.60509557 0.24744567 0.50216484
-0.020399049 -0.058749378 0.428375 0.13179527 0.21800259 -0.8194413 -0.05331981 -0.19376789
0.17720309 0.2901677 0.23279697 -0.024336096 0.21498975 0.095785424 -0.8594555 0.10249949
-0.12469444 0.007884219 -0.12461592 -0.09731277 -0.10300875 0.060412556 -0.10534356 -0.0038567781
0.007436663 0.11395432 -0.13362905 -0.12135936 -0.102647424 0.123731926 -0.06354503 0.14910914
0.06392379 0.022384524 -0.0013159364 -0.034945488 0.02217953 -0.040366024 -0.0012421161 0.02255547
-0.13827562 -0.09265422 0.1427459 -0.14346254 -0.0126936585 0.17487435 0.063858286 0.0050050914
0.026227968 0.48176274 -0.6833951 -0.33903667 -0.098947406 -0.015883932 0.17491513 0.57081
0.14740041 0.8049289 0.09561723 0.24153404 0.123008974 -0.23291309 -0.41366118 -0.62310034
0.058370262 0.17385921 0.15753232 -0.8998274 0.3573274 -0.3096156 0.38149476 -0.2099648
0.06568173 -0.06543277 -0.48581538 0.009408572 0.2296684 -0.051675275 0.15297142 -0.4650691
-0.16952582 -0.5528874 -1.2261461 0.038354944 -0.16687052 0.37334925 0.45706248 0.36391836
0.12844932 0.4459927 0.1578532 0.38123056 0.64373386 0.5282393 0.27578354 0.31738615
-0.1671369 0.111806855 0.13448675 0.089758545 0.37052745 -0.89429003 -0.19968025 -0.12283617
0.11302492 0.06676096 0.07917813 0.15441252 0.35249707 0.14665829 -1.0653965 0.032629956
-0.03478638 -0.6343407 -1.2008425 0.21993452 -0.0035013666 0.2772473 0.3094856 0.12866579
0.18366759 0.36386418 0.27161443 0.2667173 0.40464982 0.49421054 0.25633717 0.43573755
0.034715563 -0.055670932 0.25932962 0.31491303 0.27825135 -0.78421146 -0.3172496 -0.18862191
0.16580792 0.111622505 0.27709785 0.10667763 0.21828307 0.0017433465 -0.9250272 -0.004131838
0.02459819 -0.6143854 -1.2732154 0.20189059 0.054266557 0.44025457 0.4808286 0.2662306
0.15457891 0.42080215 0.07005235 0.20028128 0.6985758 0.6058683 0.2559377 0.4714225
0.13349603 0.24924637 0.42052484 0.39198548 0.17950591 -0.83752227 -0.03511936 -0.07818978
0.0044887825 0.35734004 0.32318547 0.108497344 0.22512619 0.050717205 -1.0757198 0.11731765
-0.36854163 -0.5889084 -2.0443394 0.11427548 -0.95926833 0.29046807 0.13422853 0.1716331
-0.20611195 0.14867836 -0.0554233 0.35176456 0.50105137 0.5691308 0.3829398 0.05620626
-0.12063791 -0.36340907 0.03144883 0.26587355 -0.12785225 -1.8562709 -0.3945482 -1.172048
-0.055160634 0.151824 0.23422928 0.11928893 0.3911467 -0.045265973 -0.9845372 0.117844164
0.06667967 -0.46535826 -1.0683876 0.2871785 -0.13121533 0.36363637 0.3968695 0.19605692
-0.030135816 0.41147444 0.07956618 0.46596393 0.64476436 0.47473836 0.27215728 0.54131746
0.11304675 0.08508197 0.17335287 0.4171533 0.2939772 -0.9205564 -0.015034631 -0.046527267
0.04641009 0.29608688 0.13512404 -0.015011494 0.48613307 0.007304266 -1.1454436 -0.080499254

value_stream.0.bias f4 [32]
00000000: 133f ad3e 8a46 13be 70f0 c6bd bead 093f
00000010: 0145 0a3f fbd6 883e e11d 983e 5ec3 053f
00000020: 1461 813d 8353 0b3f ee0a 6ebe 2c4b 0abe
00000030: 0b6d ff3e bab1 bb3c 893c ee3e 4c19 c73e
00000040: 0270 06be d9d8 e73d 4d92 0e3f 3d8f b6be
00000050: f4d0 a03e d549 a93e 3c4b 983e b192 713e
00000060: 01d2 67be b554 08be 41ab be3e 0d54 8abe
00000070: 1941 0c3e f2e4 1dbe 72c8 28be 9ab0 26bd
0.33837184 -0.14382377 -0.097138286 0.53780735 0.5401154 0.26726517 0.29710296 0.5225123
0.06317344 0.54424304 -0.23246357 -0.13505238 0.4988788 0.022911895 0.4653056 0.38886487
-0.13128665 0.11320657 0.5569199 -0.35656157 0.3140942 0.33064142 0.297449 0.23591115
-0.22638704 -0.13313563 0.3724003 -0.2701725 0.13696708 -0.15419367 -0.16482714 -0.040695764

value_stream.2.weight f4 [1, 32]
00000000: a985 1b3f fe02 b33d a5c6 acbf af1a 003f
00000010: 91aa 073f 7f3d d93e 0ff7 0f3f 35a0 d43e
00000020: b13d 87bb 972d f43e 891b a4bf 9164 ac3d
00000030: e418 e33e d4ac 5ebf 538f 043f 87fe 2c3f
00000040: 3a86 acbf 6fd2 deba 12a5 fc3e b463 07c0
00000050: 7ca3 003f 2b10 eb3e a3a1 143f fe60 61bf
00000060: 1112 cebf 812b 823d 561e ff3e c9dd d9bf
00000070: c36e 5ebf f9a0 25be b8af 01be c836 80bf
0.60750824 0.08740805 -1.3498122 0.50040716 0.5299464 0.4242973 0.56236356 0.41528478
-0.0041272272 0.47691032 -1.2820903 0.08417619 0.44354928 -0.86982465 0.51781195 0.6757588
-1.3478463 -0.001699997 0.4934469 -2.1154604 0.5024946 0.45910773 0.5805914 -0.88038623
-1.6099263 0.06355954 0.49827832 -1.7020808 -0.8688776 -0.16174687 -0.12664688 -1.0016718

advantage_stream.0.weight f4 [32, 32]
00000000: eca8 973d 9748 e83d cfcc d03e 4f3a 1b3e
00000010: a29d 4e3e 2f4e 71be 30c9 ce3c 763d 4c3e
00000020: ed32 cabd 8a22 12be a007 2c3e b5e7 d0bd
00000030: 9dd3 b2bd e26a 883b 3b66 4bbe 6142 02be
00000040: 0afa 9f3d 8c57 5f3e ba98 edbe 7876 133e
00000050: acf4 993e 3c07 82bd af16 cd3d d95c c23d
00000060: cabd 57bd 0a52 333d 3007 f5ba 819a 373e
00000070: 4054 0f3d ce15 e93d ab9f e3be 7bed 123e
00000080: b079 a1bc 8db7 2d3f f48d de3f ec23 da3e
00000090: e624 933d f0a8 183f dd57 4dbe 7e47 7abe
000000a0: df18 2b3e 9acb 7dbf 34fd 423e e3e3 7fbe
000000b0: c14b c7be bbc1 2fbf 03ba d0bd da90 933f
000000c0: 05a9 9abd 0a0c af3e 9199 7ebf 6825 c13e
000000d0: eb97 71bf 35fe 823f 977a e83e 6763 fb3e
000000e0: ea84 573e 05d7 b9bd cccb 0b3d 35f1 21be
000000f0: 665c f9be 2b91 2f3e a174 8b3f 48c3 783e
00000100: 0e51 923e 2e1f 333f 3017 df3f 81f2 29be
00000110: b5ec 943d c05a 80bd f304 d8bd cf09 f3bd
00000120: fc14 f13e fc68 39bf 1411 c03d 4735 e5be
00000130: 9232 14bf d09c bebe f5b6 093d 2eee 523e
00000140: d876 c5bd 30a4 123e 1963 73bf d29b 0a3f
00000150: 139d e83d 66e3 883f 2413 9d3e eaa7 ec3e
00000160: e191 113e 94a2 a03e ed13 9f3e a1e6 e3bd
00000170: 3115 a8bd 5035 313c f3a9 993f 08e3 5f3e
00000180: facf c4be 2e9c fabe e7c0 dabf 1f9a 66bd
00000190: 2180 e5be 9aa4 aabe b705 c53e 9e6b 223c
000001a0: ba56 a8bc 6bd8 f93e 7bfb 203e c792 8bbd
000001b0: c5c9 803e 02a4 a53e 3bbf 7b3e c9f6 1f3c
000001c0: b306 2c3e b907 b7be 21af b33d 82fc d8bc
000001d0: ac52 32bd 690f 67bf a069 1ebf d9e5 47bf
000001e0: 5ebe 6dbd 2a2e 77be b2f8 9a3d 6ffb 3bbe
000001f0: 25fb 9c3d 0095 f53a ec50 71bf efb9 0fbe
00000200: 9a3e 033f 226d 4c3f 79c7 983f 64a1 613e
00000210: 609b f7bd b816 7fbd 61ee 3bbe a4d5 343e
00000220: 3d0a a03e 34b7 cd3e de71 b3bb 7ad4 24be
00000230: 826d cfbd cf68 96bf 5b67 efbd 1bcc c7be
00000240: 7172 1e3e 070a de3d f312 b83e 4aa3 12be
00000250: c072 1dbf 041a 213f 0dac fd3e 11e4 a5ba
00000260: d84b 11be 3dfd ddbd 119f 11bc 707c db3c
00000270: 269e 0bbe 0ae5 f53d 4f26 923f 6755 1a3e
00000280: 3db9 e5bd 7697 163f 484e 25bd 8931 c1be
00000290: 594c 1e3e 89ca fc3e 4ede 6f3e 6520 a93e
000002a0: d386 a0be 5ce8 573f 94a9 cfbf e08c 483e
000002b0: 40bc b53d fe9d 983d 3caa 05bf e319 b6bf
000002c0: 901c 8a3c b2cc f63d ef12 fd3e 6a52 dabf
000002d0: 3c4e 5cbf d00a 12be 9752 d63e 1e0d f93d
000002e0: 15ee 2dbf 1673 75be 52c9 2cbf c726 f6bc
000002f0: 98cf 513c 51bd 1fbe 5a37 103f 082e 3dbe
00000300: 1cb8 c4be 7c96 51bf 5298 02c0 23f5 283c
00000310: f00a 24bf 4f17 6dbe 54d4 ae3e bb94 e1bc
00000320: 1af3 cdbe 3267 cb3e 363a ef3d 3190 493e
00000330: dc83 a43e 4142 f73e aa86 583e 4bc5 7e3c
00000340: 1444 13bd c197 94be 67b9 733d e831 0dbe
00000350: 5178 9bbd 40e4 b2bf 36b6 dbbe edb9 64bf
00000360: 2ac9 b3be 5508 6c3d 1286 dd3d d593 293e
00000370: 69bb 1c3e a048 133c 1417 85bf 4226 643d
00000380: bf62 c03e a8ea 273f d406 8c3f 5b52 9cbd
00000390: 09f4 fd3d 668d c83e c2a1 8c3d 60d4 7b3e
000003a0: 57a6 b53e 89ce 4a3d 493c 433d 37a3 333e
000003b0: 82cb 9dbd a5ee 84bc ca60 34be a442 533e
000003c0: 20ce 833c 8024 6f3e ecde a03e 5783 6e3e
000003d0: 3d15 dabd 24da 2c3f 6e6d b03e f006 843e
000003e0: 78de 3a3d 5998 cf3e ab40 293e 82d4 323e
000003f0: b57f 1dbd 9c4b 793d 91ae 803f 84c3 fa3d
0.07405266 0.113419704 0.40781257 0.15158962 0.2017732 -0.23564981 0.025242418 0.1994532
-0.098729946 -0.14270988 0.16799784 -0.102004446 -0.08731768 0.004163132 -0.19863217 -0.12720634
0.07811363 0.2181074 -0.46405584 0.14400661 0.30069482 -0.06349036 0.10014092 0.094903655
-0.05267123 0.04377941 -0.0018694159 0.17930032 0.034992456 0.11381112 -0.44457754 0.14348404
-0.019711345 0.678582 1.7387071 0.4260553 0.07184772 0.5963278 -0.20053048 -0.24441335
0.16708706 -0.99138796 0.19041902 -0.24989276 -0.38924983 -0.68654984 -0.10191729 1.152858
-0.07551769 0.34188873 -0.99453074 0.3772385 -0.94372433 1.0233828 0.4540603 0.49099275
0.21046796 -0.09074215 0.034129903 -0.1581467 -0.48703307 0.17145221 1.0894967 0.24293244
0.28577465 0.6996945 1.7428951 -0.16596414 0.07271711 -0.06267309 -0.10547819 -0.11867105
0.47086322 -0.7242582 0.093782574 -0.4476721 -0.57889664 -0.37229013 0.033621747 0.20598671
-0.09641808 0.14320445 -0.95073086 0.5414401 0.113580845 1.0694396 0.30678666 0.46221858
0.14215805 0.31374037 0.3106989 -0.11127973 -0.08207167 0.010815933 1.2004989 0.2186395
-0.38439924 -0.4894728 -1.7090119 -0.056299325 -0.44824317 -0.33328706 0.38480923 0.009913353
-0.020549167 0.48797926 0.15720932 -0.06815105 0.25153938 0.3235169 0.24584667 0.009763428
0.1679943 -0.3574808 0.087736376 -0.026487593 -0.043535873 -0.9025789 -0.6187992 -0.78085095
-0.058042876 -0.24138704 0.07566966 -0.18357633 0.076650895 0.0018736422 -0.942641 -0.14035772
0.512674 0.79854023 1.1935874 0.22034222 -0.12090182 -0.062277526 -0.18352653 0.17659622
0.3125781 0.40178835 -0.0054762205 -0.16096678 -0.10128309 -1.1750735 -0.11689635 -0.39022908
0.15473343 0.10841756 0.35951957 -0.14320102 -0.6150322 0.6293032 0.49545327 -0.001265647
-0.14189088 -0.10839317 -0.008888022 0.026792735 -0.13634548 0.12006576 1.1417941 0.15071641
-0.11216972 0.5882486 -0.040357858 -0.37733105 0.15458812 0.49373272 0.23424646 0.33032528
-0.31352863 0.8433893 -1.6223626 0.1958499 0.088737965 0.074520096 -0.5221288 -1.422665
0.016859323 0.12050761 0.49428508 -1.7056401 -0.86056876 -0.14261937 0.41859886 0.12160705
-0.6794141 -0.23969683 -0.6749469 -0.030047787 0.012805842 -0.15599562 0.5633446 -0.18474591
-0.38421714 -0.81870246 -2.040547 0.010312351 -0.6407919 -0.23153423 0.34146369 -0.02753674
-0.40224534 0.3972717 0.11681025 0.19683911 0.3213185 0.48292735 0.2114512 0.015549968
-0.035953596 -0.2902203 0.059502985 -0.13788569 -0.07591308 -1.3975906 -0.42912453 -0.893462
-0.35114413 0.057625134 0.108165875 0.165603 0.15305866 0.008989483 -1.0397668 0.055700548
0.37575337 0.6559243 1.0939584 -0.076328956 0.12400062 0.39170378 0.0686679 0.24592733
0.3547847 0.049513374 0.047664914 0.1754273 -0.07704832 -0.016227076 -0.17615047 0.2063089
0.016089499 0.23353767 0.31420076 0.2329229 -0.10648582 0.67520356 0.34458488 0.25786543
0.04562232 0.4054592 0.16528575 0.17463878 -0.03845187 0.060863122 1.0053273 0.12244323

advantage_stream.0.bias f4 [32]
00000000: 5ad0 52bd 8543 15be 0655 09be 38f3 bb3e
00000010: c76a 94be 9f0c 283e 29bb 3e3f db79 84be
00000020: 7178 11bd 13ce d63e 633f 223e b3da 263f
00000030: 36cf 223d f8ef babe e670 343f 7dc4 ba3e
00000040: 2add 883e 8022 1b3d c0e7 7e3e c2ba 1ebd
00000050: 8b71 c43e e149 2b3f 5c37 843e 3561 903e
00000060: 7c71 ef3e dc56 1d3f 9b84 2bbe f9a8 1fbb
00000070: 836f 22be 7cad c43d 3378 fb3e af44 293d
-0.05146823 -0.14576538 -0.1341134 0.36709 -0.28987715 0.16411065 0.74504334 -0.25874218
-0.035515253 0.41954097 0.15844493 0.6517746 0.039748393 -0.36511207 0.7048477 0.36478034
0.26731235 0.0378747 0.24893093 -0.038752325 0.38367876 0.66909605 0.25823486 0.28199163
0.4676627 0.6146066 -0.16749804 -0.002436219 -0.15862851 0.09603402 0.49115142 0.041325267

advantage_stream.2.weight f4 [2, 32]
00000000: d661 66be 748b 01c0 4163 09bf 2849 8e3f
00000010: ece7 18bf fa59 55bf 73cf 743f bdfa a0be
00000020: 1de6 ea3d c3a1 9b3f 7d61 91bf 902e 673f
00000030: 14d4 04bf 59dc 92bf c54f 793f 7144 e5bf
00000040: dedc f43e 314c 093e ef44 983b ea2c 13c0
00000050: a3f1 fa3d 555b 703f 1017 513e 8e00 d3bd
00000060: d096 863f a7f6 893f da6b cdbd 0074 65be
00000070: 28ca 21be c054 3abe bedc 5e3f 1500 823e
00000080: 273e 2a3e 8681 fabf 5539 59bf 016f 1e3f
00000090: cdc8 7cbf 56bc 47bf 3117 4b3f a80f b6be
000000a0: 4a30 0e3e 0b3d 3c3e d400 c03e cc71 3f3f
000000b0: c571 65bf 1130 4fbf 6f18 353f f4c7 ff3e
000000c0: 9606 04bf 8eb4 d6bc 9415 7dbf ddc0 d33f
000000d0: 21c9 903f be04 3d3f eaca 083f 3f46 e9be
000000e0: 293f 653e 2bec 0c3f 4de6 11be b427 05bf
000000f0: 30e1 533c 7819 15bf f865 693e d4e3 383f
-0.22498259 -2.0241365 -0.53667074 1.1116076 -0.59728885 -0.8334042 0.9562904 -0.31441298
0.11469672 1.2158741 -1.1357876 0.90305424 -0.51886106 -1.1473495 0.97387344 -1.7911512
0.47824758 0.13407971 0.0046468894 -2.2996163 0.1225312 0.9388936 0.20418954 -0.1030284
1.0514774 1.0778397 -0.10030337 -0.22407532 -0.15799773 -0.18196392 0.87055576 0.25390688
0.16625272 -1.9570777 -0.84853107 0.6188813 -0.987439 -0.7802175 0.7933226 -0.3555882
0.13885608 0.18382661 0.37500632 0.74783015 -0.89626724 -0.8093272 0.7074041 0.4995724
-0.5157255 -0.026209142 -0.9886105 1.6543232 1.131138 0.7383536 0.5343462 -0.45561406
0.22387375 0.55047864 -0.14248009 -0.5201371 0.012932107 -0.5824199 0.22792804 0.7222264

advantage_stream.2.bias f4 [2]
00000000: 1fb1 843e ff5a dcbe
0.25916383 -0.43038175
