Evolution Strategy/HillClimb/checkpoint_hillclimb_cartpole.pth (torch_old, 1210 bytes, 3 tensors)

fc1.weight f4 [16, 4]
00000000: 18a6 2d40 c748 683f b467 b5bf f09f debf
00000010: eb0b 2040 a1b2 443f 3f4c 10c0 6aad 89bf
00000020: bb40 2cbf 2ff4 ef3e 2c5e e8bd 9530 2e40
00000030: 5006 8ebf 32a5 0d3f 1f2d 0bc0 9be1 bb3e
00000040: 8714 0fc0 21a0 013f 226c 7c3b 4c3a e03e
00000050: 7451 8bbf 7f35 08bf 1bb3 2c3f 9a9f f2be
00000060: 3da9 123f 2f82 1ebe a860 e8bf 1925 a3bf
00000070: 6c55 ab3f 6c36 45bf 09d7 f0bf 5318 f03e
00000080: 441a a7bf 0755 223f d54c aabf abe9 c03f
00000090: 1701 eebc 5fd3 733f 3fe6 2340 039e 3740
000000a0: 91c1 24bf 7faa 123f 70c3 82be f366 363e
000000b0: e798 8f3d 345a 94be c1bb 4fc0 7ea6 9c3f
000000c0: 7c9b 0640 ba84 0740 6a82 12bd 81d3 09c0
000000d0: 7a1a 0fc0 c95b 07bf 81b4 5c3f c5ff b33f
000000e0: b089 af3e f289 4c3f c87d 5bbe 94a0 e13f
000000f0: cb8a 5c40 2663 943d 5723 babf 03a3 2dc0
2.7132626 0.9073605 -1.4172273 -1.7392559 2.5007274 0.76835066 -2.2546537 -1.0756047
-0.6728627 0.46865985 -0.11346087 2.7217152 -1.1095676 0.55330193 -2.174629 0.3669556
-2.235628 0.5063496 0.00385166 0.43794477 -1.0884233 -0.5320663 0.67460793 -0.4738739
0.5728949 -0.15479349 -1.8154497 -1.2745696 1.3385444 -0.77036166 -1.8815624 0.46893558
-1.3054891 0.6341099 -1.3304697 1.507131 -0.029053254 0.952444 2.560928 2.8690193
-0.6435786 0.57291406 -0.25539732 0.1781271 0.07011586 -0.2897507 -3.2458346 1.2238309
2.10324 2.117476 -0.035768904 -2.1535342 -2.235991 -0.5287443 0.8621293 1.406243
0.34284735 0.7989799 -0.214347 1.762713 3.4459713 0.072454736 -1.4542035 -2.7130744

fc1.bias f4 [16]
00000000: 081f 063f 1327 5dbd 900b 6dbe adcc 273f
00000010: 8b0e 813d 718b 2ec0 a511 1d40 8b16 d83f
00000020: e457 68be 516a 013f 70fd 1fc0 e3fa 693f
00000030: 3538 29bf 7e39 cd3f b294 0cbe f4a4 943d
0.523911 -0.053992342 -0.23148942 0.65546685 0.06301602 -2.7272608 2.454202 1.688188
-0.22689778 0.5055285 -2.4998436 0.9139845 -0.6610139 1.603317 -0.13728598 0.07258025

fc2.weight f4 [1, 16]
00000000: 4f0e 95bf 34ca 703f 454b 2ec0 cf83 3240
00000010: a0b0 80be a8d0 8b3f fa3b 8fbf 1da3 efbe
00000020: 0f65 2e3e 07cf a740 bae9 1fbf 6bdb 0940
00000030: 2b8e dcbe 72da 88bf 8296 dc3e 1709 3c3f
-1.1644992 0.9405854 -2.723344 2.789295 -0.25134754 1.0923052 -1.1190178 -0.46804133
0.17030738 5.244022 -0.62466013 2.1540172 -0.43077216 -1.0691664 0.43083578 0.7345137
